checkpoints/shared_leader_agent_step100000.pth (torch, 354629 bytes, 24 tensors)

net.0.weight f4 [128, 31]
-0.008902301 0.08312193 0.078021206 -0.5455104 0.7268549 0.8999555 -0.018982172 -0.55269164
0.22581507 -1.3004947 0.7254905 0.8674754 0.3762732 -0.5503598 -0.46552005 -1.4710721
-1.0361464 -1.2258403 -0.51908946 -0.4094738 -0.42521203 -1.3981761 0.39283603 0.9637908
0.31667474 0.28077382 -0.11711822 0.30893108 0.008357322 0.12488785 -10.353011 -0.011641009
-0.33233207 0.3831644 0.48361123 -0.25637156 -0.0097417785 -0.14483081 0.7324933 0.4570981
-0.6184451 0.82302946 -0.18881388 -0.33182803 -0.51535743 -0.45802763 1.6408426 0.687426
0.31289744 0.17203343 -0.03423434 -0.40399066 0.7204346 -0.34431833 0.43914282 -0.2492322
-0.21773669 0.26915303 2.6531765 1.5963546 1.1497207 -12.711122 -0.09208245 0.16977891
-0.14168467 -0.23040341 -0.39803922 -0.15413369 0.6167464 -0.6798545 0.2765298 -1.4984063
-1.0338057 0.49976778 1.1982131 -0.67964363 0.057895117 0.19630715 -1.3607113 1.6457345
-0.63117707 0.19689468 -0.14348793 -0.9990926 0.051918294 0.16501285 -0.089278184 -0.041942514
-0.4662597 -0.7550798 -0.72780055 1.0940614 -9.355389 -1.2354488 -0.31033772 0.8097242
-0.77347046 -0.07527736 -0.7694016 -0.2770203 0.009126894 -0.06838878 -0.114234395 0.7716563
0.9562208 0.45818335 -0.412135 0.2379402 -0.6633806 0.39300683 -1.4859097 0.31930277
-0.23115434 -0.3656537 0.6812642 1.3730017 0.08873441 0.25526184 -0.29445255 0.09538765
-0.97737753 0.6386317 -0.59467006 -14.097785 -0.04855665 -0.44983903 0.26776233 -0.27343708
0.150056 -0.6809275 0.31197533 -0.019920088 0.12470932 0.21171029 -0.26856917 0.10569109
0.293256 -0.23765898 0.30027947 -0.22988898 -0.32670546 -0.6399983 -0.5051154 -0.23338255
-0.15801816 1.0938796 1.0750312 -0.2874393 0.20641512 -0.07107236 0.10892544 0.56748074
-0.95766187 -0.44909132 -14.369521 0.37802008 -0.39158073 -0.23668689 -0.971639 -0.9104281
0.47551385 0.25948748 -0.2063691 -0.10953955 0.976775 0.75633407 0.15160501 0.61296743
-0.1548012 -0.4583282 0.17188384 0.121154405 0.15320872 -0.2604047 0.43239295 0.19040412
0.6859926 0.58176595 -0.15139407 0.3055062 0.57298243 0.28550717 -0.74632484 1.3304423
0.75366855 -12.868375 -0.9322024 0.79591256 0.9549255 0.5509282 -1.9242704 0.69403327
-0.53609556 -0.16317692 -1.013138 -0.5403341 -1.1791583 -1.4165962 0.23229533 0.14376001
-0.4621479 -0.00920935 -1.5287055 0.4369531 0.266047 -0.49503472 0.2551725 -0.38589758
0.94608265 -1.5607547 0.29227537 0.069081426 -0.15777306 0.1388082 -0.630066 -1.4784086
-12.327441 -0.6807392 -0.6252851 0.7706744 -0.043461595 0.37166375 0.10870835 -0.65331554
0.19016808 -0.08526304 0.6174047 -0.10453166 0.20889586 0.109256804 -0.27792332 -0.26482746
0.16895711 1.0061144 -1.8073393 -0.1035566 -0.46100816 0.35019705 0.95174944 1.4202279
-1.1699029 0.32526296 -0.030792328 -0.5216174 -0.73534614 0.14373995 -0.25481507 -9.719195
-0.47094327 0.23794965 0.79520565 1.9944514 -0.21443062 0.34004256 -0.6746697 -0.33000362
00000000: f5da 11bc d53b aa3d 95c9 9f3d 92a6 0bbf
00000010: 2a13 3a3f 7c63 663f 8080 9bbc 337d 0dbf
00000020: 113c 673e 9c76 a6bf bfb9 393f de12 5e3f
00000030: e2a6 c03e 61e4 0cbf a558 eebe 174c bcbf
00000040: 72a0 84bf 56e8 9cbf 0ce3 04bf 8da6 d1be
00000050: 64b5 d9be 6ff7 b2bf ce21 c93e feba 763f
00000060: 3123 a23e 96c1 8f3e addb efbd 372c 9e3e
00000070: 26ed 083c 33c5 ff3d efa5 25c1 eeb9 3ebc
00000080: 6e27 aabe 202e c43e e49b f73e 2243 83be
00000090: fb9b 1fbc 874e 14be ae84 3b3f c308 ea3e
000000a0: 6b52 1ebf 0fb2 523f 6d58 41be 5de5 a9be
000000b0: 77ee 03bf 9982 eabe 2107 d23f 26fb 2f3f
000000c0: 1834 a03e 8829 303e 4f39 0cbd ddd7 cebe
000000d0: 676e 383f 7e4a b0be 54d7 e03e ba36 7fbe
000000e0: 5ef6 5ebe 6dce 893e a5cd 2940 5955 cc3f
000000f0: 0c2a 933f c160 4bc1 b995 bcbd 86da 2d3e
00000100: c915 11be dfee 6bbe cccb cbbe 39d5 1dbe
00000110: 18e3 1d3f f20a 2ebf 5095 8d3e c7cb bfbf
00000120: bf53 84bf 90e1 ff3e 0c5f 993f 20fd 2dbf
00000130: 6e23 6d3d be04 493e ca2b aebf 6ea7 d23f
00000140: d294 21bf c29e 493e 80ee 12be 88c4 7fbf
00000150: 47a8 543d 21f9 283e 7bd7 b6bd eacb 2bbd
00000160: 97b9 eebe e94c 41bf 2351 3abf 340a 8c3f
00000170: acaf 15c1 3023 9ebf 96e4 9ebe 164a 4f3f
00000180: 2902 46bf 042b 9abd 81f7 44bf 9bd5 8dbe
00000190: f888 153c 6b0f 8cbd b9f3 e9bd 448b 453f
000001a0: e3ca 743f 0297 ea3e 5c03 d3be 99a6 733e
000001b0: 50d3 29bf 3138 c93e 4a32 bebf a77b a33e
000001c0: b9b3 6cbe f636 bbbe 5567 2e3f 85be af3f
000001d0: 63ba b53d aeb1 823e 7cc2 96be 9a5a c33d
000001e0: 6a35 7abf 5e7d 233f 4c3c 18bf 8790 61c1
000001f0: 56e3 46bd 4d51 e6be 2518 893e f2ff 8bbe
00000200: 48a8 193e 4451 2ebf 3bbb 9f3e 742f a3bc
00000210: 9a67 ff3d 95ca 583e e681 89be 9274 d83d
00000220: a725 963e e05c 73be 3bbe 993e 0468 6bbe
00000230: f045 a7be eed6 23bf 3e4f 01bf d6fb 6ebe
00000240: 83cf 21be 3f04 8c3f 9f9a 893f 3e2b 93be
00000250: 7c5e 533e 638e 91bd 4d14 df3d 6b46 113f
00000260: 5429 75bf 4cef e5be 8fe9 65c1 d98b c13e
00000270: 457d c8be 0c5e 72be 55bd 78bf d111 69bf
00000280: 8d76 f33e 8bdb 843e 6c52 53be 4656 e0bd
00000290: ed0d 7a3f 1c9f 413f 583e 1b3e 6feb 1c3f
000002a0: 3584 1ebe fea9 eabe 5102 303e cd1f f83d
000002b0: bfe2 1c3e c453 85be 9c62 dd3e 4cf9 423e
000002c0: 369d 2f3f 9dee 143f 0c07 1bbe 4f6b 9c3e
000002d0: faae 123f ff2d 923e 250f 3fbf ef4b aa3f
000002e0: 6cf0 403f dde4 4dc1 d1a4 6ebf edc0 4b3f
000002f0: ff75 743f a109 0d3f 7e4e f6bf 2aac 313f
00000300: 8f3d 09bf da17 27be 82ae 81bf 5653 0abf
00000310: a9ee 96bf 0653 b5bf d4de 6d3e d335 133e
00000320: a69e ecbe d0e2 16bc 9fac c3bf 51b8 df3e
00000330: 5037 883e 3175 fdbe f8a5 823e 5e94 c5be
00000340: 7932 723f cfc6 c7bf 1ea5 953e 907a 8d3d
00000350: 438f 21be bd23 0e3e 014c 21bf 7e3c bdbf
00000360: 333d 45c1 ed44 2ebf af12 20bf eb4a 453f
00000370: c904 32bd b64a be3e 7ca2 de3d b03f 27bf
00000380: 6cbb 423e 649e aebd 3c0e 1e3f b214 d6bd
00000390: cce8 553e 08c2 df3d f74b 8ebe 7797 87be
000003a0: 1803 2d3e 5bc8 803f e556 e7bf 7c15 d4bd
000003b0: 4309 ecbe 074d b33e daa5 733f 07ca b53f
000003c0: 61bf 95bf de88 a63e 3140 fcbc b888 05bf
000003d0: a53f 3cbf 9130 133e 1f77 82be d381 1bc1
000003e0: 7a1f f1be 13a9 733e 9992 4b3f 2f4a ff3f
000003f0: b393 5bbe 0f1a ae3e 27b7 2cbf 3cf6 a8be

net.0.bias f4 [128]
-10.519206 -12.44767 -9.450487 -14.170834 -14.164919 -12.780819 -12.40935 -9.537691
-15.75692 -5.2474856 -11.954306 -4.36686 -13.530159 -12.011652 -11.709929 -10.672716
-7.5189443 -11.161255 -8.017255 -3.3982046 -12.352151 -6.6732507 -10.367758 -9.324333
-11.701146 -13.162178 -13.234013 -3.1560965 -13.019761 -2.7490666 -2.3960621 -11.425509
-1.5038797 3.9976807 -12.077021 -3.8006868 -14.039313 -5.4725533 -12.39745 -9.243137
-5.785409 -11.027328 -8.887203 -7.434811 -8.094841 -1.0439321 -6.4593253 -7.378502
-10.334984 -10.349364 -13.854014 -2.4642925 -7.9271297 -8.327981 -8.442413 -0.96624994
-10.724688 -2.4350011 -4.735397 -13.139317 -13.077596 -3.591721 -4.627075 -16.979324
-17.029518 -15.519751 -9.787113 -4.698559 -12.416668 -12.478776 -8.168849 0.22406176
-8.684026 -5.138354 -5.847317 4.727322 -3.816459 -10.233495 -15.925607 -10.860391
-1.2973069 -12.547941 -11.6673565 -7.5311437 -8.976362 -9.417533 -9.79776 -11.127347
-9.757163 -7.1744366 -14.618446 -15.141493 -1.3110939 -10.727145 -6.6220794 -6.0055585
-7.875653 -1.1483569 -13.634244 -4.921726 -2.952852 -13.180197 -12.793335 -11.528384
-14.719922 -5.487034 -8.739822 -11.955845 -4.8792515 -11.819655 -2.0624652 -11.656192
-14.665334 0.35434422 -3.167371 -8.501367 -0.8764109 -10.851746 -10.951392 -11.058903
-4.5465064 -13.740089 -0.8277557 -1.0939897 -12.298022 -2.7708714 -11.51988 -9.762919
00000000: ab4e 28c1 a829 47c1 3235 17c1 bcbb 62c1
00000010: 82a3 62c1 3c7e 4cc1 b38c 46c1 629a 18c1
00000020: 581c 7cc1 67eb a7c0 d644 3fc1 51bd 8bc0
00000030: 887b 58c1 ba2f 40c1 df5b 3bc1 72c3 2ac1
00000040: 319b f0c0 8094 32c1 ad46 00c1 2f7c 59c0
00000050: 69a2 45c1 458b d5c0 56e2 25c1 7830 15c1
00000060: e537 3bc1 4898 52c1 84be 53c1 7cfd 49c0
00000070: f150 50c1 b5f0 2fc0 1559 19c0 e3ce 36c1
00000080: 217f c0bf 00da 7f40 7a3b 41c1 743e 73c0
00000090: 07a1 60c1 281f afc0 f55b 46c1 e4e3 13c1
000000a0: 1222 b9c0 ef6f 30c1 fc31 0ec1 f9e9 edc0
000000b0: 7884 01c1 919f 85bf cbb2 cec0 b01c ecc0
000000c0: 185c 25c1 ff96 25c1 0baa 5dc1 f8b6 1dc0
000000d0: 0cab fdc0 693f 05c1 2014 07c1 285c 77bf
000000e0: 5298 2bc1 0fd7 1bc0 5f88 97c0 a43a 52c1
000000f0: d53d 51c1 c2de 65c0 0011 94c0 a8d5 87c1
00000100: 743c 88c1 e650 78c1 0498 1cc1 985a 96c0
00000110: acaa 46c1 11a9 47c1 9bb3 02c1 7270 653e
00000120: c5f1 0ac1 656d a4c0 391d bbc0 3946 9740
00000130: dd40 74c0 65bc 23c1 49cf 7ec1 29c4 2dc1
00000140: 270e a6bf 5ec4 48c1 7ead 3ac1 21ff f0c0
00000150: 2e9f 0fc1 37ae 16c1 a0c3 1cc1 9d09 32c1
00000160: 571d 1cc1 fc94 e5c0 28e5 69c1 8e43 72c1
00000170: edd1 a7bf 63a2 2bc1 13e8 d3c0 892d c0c0
00000180: 5905 fcc0 5cfd 92bf dd25 5ac1 c87e 9dc0
00000190: 87fb 3cc0 16e2 52c1 80b1 4cc1 4374 38c1
000001a0: cd84 6bc1 c895 afc0 50d6 0bc1 244b 3fc1
000001b0: d422 9cc0 4f1d 3dc1 6eff 03c0 c37f 3ac1
000001c0: 35a5 6ac1 9b6c b53e 35b6 4ac0 9905 08c1
000001d0: 775c 60bf c0a0 2dc1 e738 2fc1 44f1 30c1
000001e0: fb7c 91c0 68d7 5bc1 cce7 53bf db07 8cbf
000001f0: b3c4 44c1 f555 31c0 6e51 38c1 eb34 1cc1

net.2.weight f4 [128, 128]
0.01977324 0.09949089 -0.1706657 -0.024466844 -0.11743282 0.002469265 -0.053999368 -0.15399665
0.15191044 -0.039907545 0.06340489 -0.15255399 -0.11163358 -0.21395141 -0.07638695 -0.41610005
-0.09776445 -0.23343304 0.0119010005 -0.122369714 -0.2398945 -0.07414347 -0.016274905 0.019180216
-0.19694065 -0.26013836 -0.29177797 -0.18800335 -0.3919212 -0.10317151 -0.032333523 -0.121292025
0.00930669 -0.09333188 -0.057024524 -0.112423435 -0.12229227 -0.049547594 -0.15070404 -0.27093473
-0.24213941 -0.2934368 -0.011281222 -0.3214792 -0.057984956 -0.33078015 -0.18173566 -0.13694076
-0.24662217 -0.012658496 -0.11771186 -0.17808971 -0.10445055 -0.17072266 -0.08957758 -0.018229296
0.0042003933 -0.15380481 -0.42392677 -0.032070573 -0.11251773 -0.09667546 -0.12844157 -0.26147076
-0.09314267 0.11847852 -0.025656885 0.02889049 -0.111908905 -0.07973507 -0.10645694 -0.23171955
-0.056011923 -0.22364512 -0.009948117 -0.24044569 -0.17623317 0.10751504 0.06777455 -0.3803943
-0.22905575 -0.21989462 -0.1823515 -0.063616574 -0.34626743 -0.13806477 -0.20228462 -0.111472584
0.06276327 -0.05265988 -0.09587288 -0.15199387 -0.24259157 -0.17612275 -0.1002476 -0.063558824
-0.01765045 -0.07717712 0.012048799 -0.30933973 -0.10480167 -0.26370317 -0.13023274 0.04214673
-0.076189056 -0.27355167 -0.09402538 -0.14843756 -0.1660251 0.021713834 -0.18843713 -0.12561668
0.18574312 -0.046261966 -0.08782137 -0.20851916 -0.20911488 -0.17452055 -0.1618578 -0.12174901
-0.042576946 -0.14146325 -0.15043598 -0.16988714 -0.0939938 -0.19787346 -0.06765126 -0.026518393
-0.16496275 0.13871542 0.016234213 -0.00095189404 -0.22507894 -0.067959376 -0.077118576 -0.4089732
-0.13948019 -0.12414069 -0.17593086 -0.14840469 -0.039547037 -0.09192613 -0.2220368 -0.14751975
-0.106809966 0.015391353 -0.106399536 -0.116515346 -0.34420845 -0.17971534 -0.10307898 -0.099800244
0.048860576 -0.086681455 -0.10933401 -0.15959813 -0.060886998 -0.033021856 -0.049238153 -0.042662386
-0.10622239 -0.09587607 -0.029901773 -0.24234177 -0.18561079 -0.16896412 0.07286682 -0.02875013
-0.18685326 0.034041688 0.0394756 -0.023691671 -0.09689356 -0.18805139 -0.20541777 -0.09267838
-0.100708805 -0.14271776 -0.0614006 -0.11330095 -0.09798426 -0.017303364 -0.17573167 -0.33031046
-0.03468336 -0.1911918 -0.26577565 0.0029369588 -0.102434635 -0.07956409 -0.072649285 -0.12443781
-0.12090689 -0.08048634 0.0110501945 -0.14715904 0.09276024 -0.048037827 -0.17758928 -0.28161365
-0.069670595 0.07341774 -0.0457433 -0.17343296 -0.20793991 0.009583367 -0.2031343 -0.18500338
-0.15358722 -0.14689921 -0.074255444 0.17111331 0.024268454 -0.3552475 -0.10328535 -0.24670829
-0.131853 -0.06253209 -0.10641706 -0.12491289 -0.27282003 -0.36737207 -0.13687581 -0.22886619
-0.20058975 -0.053617757 -0.014767935 -0.043218605 -0.15476915 -0.24178843 0.026389541 -0.11692737
-0.12487808 -0.100543216 -0.08941328 -0.037168708 -0.08860625 0.045854114 0.007997067 -0.07643784
-0.08139471 -0.17587346 -0.018973075 0.010210429 -0.1508287 -0.18179308 -0.09040258 -0.09047191
-0.24672861 -0.199807 -0.09362554 -0.139757 0.05951156 0.028464755 -0.08399284 0.10637212
00000000: 7dfb a13c e1c1 cb3d fdc2 2ebe b16e c8bc
00000010: 9e80 f0bd 64d3 213b 712e 5dbd 4cb1 1dbe
00000020: 698e 1b3e 1876 23bd 6cda 813d 1d37 1cbe
00000030: 25a0 e4bd 1416 5bbe c370 9cbd 110b d5be
00000040: ba38 c8bd 1209 6fbe 6afc 423c f99c fabd
00000050: e7a6 75be 88d8 97bd f352 85bc d41f 9d3c
00000060: cfaa 49be db30 85be ec63 95be f383 40be
00000070: e5a9 c8be 964b d3bd 2870 04bd f467 f8bd
00000080: 167b 183c c924 bfbd 8c92 69bd 423e e6bd
00000090: 5f74 fabd 6bf2 4abd 2952 1abe f5b7 8abe
000000a0: 65f3 77be 593d 96be e0d4 38bc ec98 a4be
000000b0: a281 6dbd 045c a9be ea18 3abe 333a 0cbe
000000c0: 868a 7cbe 9565 4fbc ea12 f1bd 265d 36be
000000d0: 2cea d5bd ecd1 2ebe 7374 b7bd 9b55 95bc
000000e0: 74a3 893b 027f 1dbe ee0c d9be 6f5c 03bd
000000f0: b26f e6bd c9fd c5bd 3086 03be 7fdf 85be
00000100: 96c1 bebd dea4 f23d 632e d2bc c0ab ec3c
00000110: 7f30 e5bd 244c a3bd 1906 dabd e447 6dbe
00000120: c26c 65bd 3a03 65be 6dfd 22bc 6537 76be
00000130: 7876 34be d830 dc3d 62cd 8a3d 0bc3 c2be
00000140: 978d 6abe 0e2c 61be 5aba 3abe 6849 82bd
00000150: f749 b1be da60 0dbe b323 4fbe bd4b e4bd
00000160: 088a 803d e3b1 57bd 0059 c4bd 48a4 1bbe
00000170: ed69 78be 8659 34be 9d4e cdbd 212b 82bd
00000180: ad97 90bc 0a0f 9ebd 5368 453c c761 9ebe
00000190: 42a2 d6bd 1a04 87be bb5b 05be 0da2 2c3d
000001a0: 0209 9cbd f70e 8cbe 6190 c0bd 0400 18be
000001b0: 7c02 2abe 36e1 b13c aaf5 40be a9a1 00be
000001c0: 7233 3e3e 307d 3dbd b1db b3bd 0c86 55be
000001d0: 3622 56be 84b5 32be 0dbe 25be 8c57 f9bd
000001e0: 2a65 2ebd bedb 10be e40b 1abe e5f6 2dbe
000001f0: d27f c0bd 579f 4abe be8c 8abd 1a3d d9bc
00000200: ffeb 28be 6a0b 0e3e 9dfd 843c 8788 79ba
00000210: 187b 66be 492e 8bbd 58f0 9dbd ef64 d1be
00000220: e5d3 0ebe 793d febd 3827 34be 66f7 17be
00000230: 13fc 21bd c443 bcbd 9d5d 63be 6b0f 17be
00000240: 2fbf dabd 032c 7c3c 00e8 d9bd 999f eebd
00000250: 173c b0be 4c07 38be 131b d3bd 1264 ccbd
00000260: 0722 483d 0c86 b1bd 82ea dfbd b16d 23be
00000270: a564 79bd ed41 07bd f2ad 49bd c1be 2ebd
00000280: 208b d9bd ac5a c4bd 90f4 f4bc 7128 78be
00000290: c110 3ebe ee04 2dbe 333b 953d 6585 ebbc
000002a0: 7656 3fbe 4c6f 0b3d 2bb1 213d 0915 c2bc
000002b0: 2170 c6bd 8b90 40be 0959 52be 2ace bdbd
000002c0: 6b40 cebd 9b24 12be 327f 7bbd 540a e8bd
000002d0: f9ab c8bd c9bf 8dbc 01f3 33be 741e a9be
000002e0: 2410 0ebd c9c7 43be bf13 88be fe79 403b
000002f0: 40c9 d1bd 7ff2 a2bd 26c9 94bd 40d9 febd
00000300: 089e f7bd 06d6 a4bd e00b 353c dcb0 16be
00000310: 15f9 bd3d 50c3 44bd f7d9 35be aa2f 90be
00000320: 75af 8ebd 0a5c 963d 545d 3bbd 6998 31be
00000330: 33ee 54be 8e03 1d3c 7002 50be 8771 3dbe
00000340: f845 1dbe bf6c 16be 3d13 98bd 5438 2f3e
00000350: a3ce c63c 00e3 b5be 4587 d3bd 19a1 7cbe
00000360: 7904 07be d310 80bd 30f1 d9bd 54d2 ffbd
00000370: 11af 8bbe 3118 bcbe 2c29 0cbe e65b 6abe
00000380: 6667 4dbe 4b9e 5bbd 35f5 71bc fe05 31bd
00000390: ce7b 1ebe 6397 77be e12e d83c 9e77 efbd
000003a0: 14c0 ffbd 9ae9 cdbd 4f1e b7bd 373e 18bd
000003b0: 3277 b5bd 86d1 3b3d 2106 033c 718b 9cbd
000003c0: 45b2 a6bd 2c18 34be 6c6d 9bbc a549 273c
000003d0: d772 1abe f727 3abe fd24 b9bd 5649 b9bd
000003e0: 6da6 7cbe 359a 4cbe bfbe bfbd 761c 0fbe
000003f0: 65c2 733d eb2e e93c 7004 acbd a0d9 d93d

net.2.bias f4 [128]
-0.27345017 -0.33021554 -0.28174564 -0.292014 -0.27298477 -0.46053502 -0.049527887 -0.37945443
-0.21011043 -0.30284855 -0.25800514 -0.14266874 -0.28330097 -0.23111098 -0.21806754 -0.1600441
-0.5336791 -0.48930734 -0.26173604 -0.43261093 -0.47057754 0.37781993 -0.31328344 -0.30948278
-0.47950196 -0.43573448 -0.23388709 -0.5901595 -0.09945338 -1.2014476 -0.29204723 -0.26615125
-0.4082263 0.10647182 -0.77676594 -0.06476532 -0.46117088 -0.730617 -0.4734998 -0.5275499
0.10337113 -0.598273 -0.4888241 0.6494461 -0.32424727 -0.6211092 -0.32214227 -0.5791939
-0.1789598 -0.4888676 -0.42504525 -0.3219434 -0.16753793 -0.5185967 -0.43933797 -0.5058421
-0.2879266 -0.3242495 -0.7012434 -0.6147029 -0.31252572 -0.053177517 -0.03134318 -1.1683383
-0.4173146 -0.6831915 -0.16502643 -0.6499125 -0.47925895 -0.11079512 -0.43337288 -0.05763113
-0.43334585 -0.5123563 -0.22761948 -0.26403928 -0.32586065 -0.39092633 -3.3183668 -0.2013757
-0.18690734 -0.5164003 -0.3739454 -0.24848513 -0.25145742 -0.3977457 -0.29632202 -0.4243619
-0.2075306 -0.3226572 -0.7349412 -0.20334552 -0.2608959 -0.10596106 -0.6387309 -0.40873483
-0.34775552 -0.12307353 -0.40778896 -0.27137464 -0.24160117 -0.45051426 -0.4582714 -0.41018882
-0.251157 -0.1451377 -1.6594404 -0.4228705 -0.18484713 -0.27484646 -0.3915731 -0.4902983
-0.3621564 -0.18560672 -0.7423386 -0.7145054 -0.5309695 -0.6538523 -0.19864273 -0.45568344
-0.5422553 -0.18571793 -1.0964876 -0.47149873 -0.5827775 -0.3804307 -0.6041804 5.4524794
00000000: a901 8cbe 0312 a9be f740 90be dc82 95be
00000010: a9c4 8bbe 3fcb ebbe c1dd 4abd da47 c2be
00000020: 3027 57be f70e 9bbe 4019 84be c117 12be
00000030: d30c 91be 5ba8 6cbe 194d 5fbe 9ae2 23be
00000040: 329f 08bf 7e86 fabe 4402 86be 2e7f ddbe
00000050: 8aef f0be 9d71 c13e b066 a0be 8774 9ebe
00000060: 4881 f5be 9718 dfbe 1980 6fbe b114 17bf
00000070: 37ae cbbd 09c9 99bf 3787 95be fa44 88be
00000080: 0a03 d1be e60d da3d 22da 46bf aea3 84bd
00000090: 971e ecbe b709 3bbf 916e f2be 830d 07bf
000000a0: 3eb4 d33d 6b28 19bf 2747 fabe 1a42 263f
000000b0: bd03 a6be 0301 1fbf d5ef a4be 0d46 14bf
000000c0: 3d41 37be db4c fabe 889f d9be c4d5 a4be
000000d0: 108f 2bbe c1c2 04bf e8f0 e0be de7e 01bf
000000e0: 1e6b 93be 0804 a6be b084 33bf 2b5d 1dbf
000000f0: 5f03 a0be abd0 59bd b561 00bd 1c8c 95bf
00000100: 42aa d5be a3e5 2ebf b0fc 28be aa60 26bf
00000110: 6e61 f5be 8de8 e2bd 0de3 ddbe 9f0e 6cbd
00000120: 82df ddbe c829 03bf 1515 69be 2830 87be
00000130: 35d7 a6be 7f27 c8be 1f60 54c0 6e35 4ebe
00000140: a364 3fbe cf32 04bf c575 bfbe e372 7ebe
00000150: 07bf 80be 53a5 cbbe 85b7 97be f745 d9be
00000160: e782 54be 5333 a5be 1b25 3cbf cf39 50be
00000170: 2694 85be 1d02 d9bd de83 23bf b145 d1be
00000180: 030d b2be fa0d fcbd b7c9 d0be 9ef1 8abe
00000190: 4c66 77be cea9 e6be 8da2 eabe 4504 d2be
000001a0: a697 80be fa9e 14be 8b68 d4bf 7b82 d8be
000001b0: 9148 3dbe adb8 8cbe 457c c8be 6108 fbbe
000001c0: 906c b9be b00f 3ebe e709 3ebf d3e9 36bf
000001d0: 9eed 07bf dd62 27bf 0069 4bbe 574f e9be
000001e0: 3ed1 0abf d72c 3ebe b559 8cbf 4868 f1be
000001f0: e830 15bf d0c7 c2be 91ab 1abf b67a ae40

net.4.weight f4 [7, 128]
-0.0052528405 -0.023702238 -0.019929795 0.14833847 0.026622118 -0.016524402 -0.2129934 0.029102318
0.1016411 0.057237104 -0.09497811 -0.020837381 0.00997464 0.04030459 -0.07653129 0.0064770663
-0.034037147 0.007620667 0.0019865015 0.022865947 0.016758464 -0.04773619 0.029264377 0.02323207
0.0020853595 -0.017852506 0.023116713 0.050256148 0.0075666076 -0.06579129 0.00037913077 0.09296396
0.050614815 -0.022884658 0.028028717 -0.051034674 0.02851508 -0.17673115 -0.04286552 0.06808748
-0.02433009 -0.053215392 0.031941615 -0.11835369 0.068002656 0.0063343723 0.08772195 0.007613935
-0.15736602 0.055690117 0.06693699 -0.14187986 -0.07793972 0.011722248 -0.16661231 -0.16051155
-0.10368083 0.07394033 0.08027939 -0.114413835 0.023700776 0.056535613 -0.0143213365 0.06452401
0.040346198 -0.06223857 0.0027484412 -0.101825036 0.0065060738 0.0033181342 0.12296281 -0.018945444
-0.0884163 0.059397895 0.054543886 0.06896519 -0.13744687 -0.0017884056 0.00034622423 0.041807774
0.113752715 -0.08620243 0.07737578 0.15422069 0.00744796 0.083957724 0.20175701 -0.057815246
-0.07504985 -0.008108172 -0.06187601 -0.08958004 -0.047812894 -0.15565237 -0.031360194 -0.2544006
-0.018368924 -0.06933 -0.005510261 -0.07736431 -0.12681952 -0.020781985 -0.06671088 -0.07385334
0.026397062 0.052421845 0.047241837 -0.09161543 0.004053689 0.03916881 0.090290405 0.03602297
-0.024804343 -0.046886 -0.10123754 -0.058665376 0.021187203 -0.10798499 0.011339727 -0.15151045
-0.15128757 -0.078616574 -0.009922289 -0.006418409 -0.02080018 -0.002472226 -0.099492565 -0.022998692
0.025908947 0.007110607 -0.05117623 -0.005740702 0.067175314 -0.029899465 -0.07486632 -0.073376596
-0.119197935 0.03808237 0.08068024 -0.049980376 0.07079995 -0.17349696 -0.018335657 -0.056103144
-0.042413644 -0.08974558 -0.1290837 0.0053807297 -0.03115015 0.027118392 0.06580618 0.029021075
0.065504335 0.03475735 0.00928317 0.02234137 -0.005406872 -0.04950035 -0.0015838203 0.0028659354
0.01162951 -0.18306749 -0.10973291 0.13255784 0.037107427 -0.085100666 0.053334314 -0.0819459
-0.10962807 0.05014771 0.04019288 0.07650605 0.023641512 0.0031314774 -0.0908522 -0.15988533
-0.12576348 0.020318406 -0.17519076 0.002120177 -0.025893362 -0.02144888 -0.007410873 0.104438215
0.050073802 0.019056689 0.065356314 -0.093231484 -0.08724768 0.043894712 0.06698251 0.09586633
-0.11005126 -0.17092673 0.021714635 -0.029390581 0.028971698 0.099689655 -0.110363364 -0.004209173
0.025225526 -0.026006903 0.012647904 -0.02866385 0.027293326 0.010740595 -0.015519181 0.024334878
-0.021628661 -0.020799138 -0.021231439 0.04430714 -0.015032828 -0.016249334 -0.08880456 -0.07895104
0.04034405 -0.03529125 -0.01342292 -0.10877559 -0.12217308 -0.10409523 -0.13640897 -0.08667875
0.014999664 0.05676388 -0.08997338 -0.104227036 -0.1455861 -0.049410913 -0.032780327 -0.04769774
0.019431695 -0.02919749 0.044358697 -0.09013317 -0.11944211 -0.062028244 0.0671938 0.035689685
0.023772232 -0.022870615 0.0056833294 -0.061449766 -0.008700976 0.071914196 0.015566936 -0.06779965
-0.09721703 -0.1371714 -0.042563587 -0.09124651 0.013270535 0.015001685 -0.00878098 -0.016448975
00000000: 0520 acbb 322b c2bc cf43 a3bc 0ae6 173e
00000010: a116 da3c 2f5e 87bc f11a 5abe fc67 ee3c
00000020: 3629 d03d 7471 6a3d e283 c2bd 28b3 aabc
00000030: ac6c 233c 6d16 253d 70bc 9cbd 923d d43b
00000040: 896a 0bbd cab6 f93b f72f 023b 5e51 bb3c
00000050: 0c49 893c 0687 43bd d9bb ef3c 2f51 be3c
00000060: 87aa 083b 6b3f 92bc 435f bd3c 64d9 4d3d
00000070: 4ef1 f73b 95bd 86bd 12c6 c639 e363 be3d
00000080: 7b51 4f3d 9b78 bbbc 7b9c e53c bc09 51bd
00000090: 7598 e93c 03f9 34be c193 2fbd 7371 8b3d
000000a0: e64f c7bc 62f8 59bd 36d5 023d 6b63 f2bd
000000b0: fa44 8b3d 9190 cf3b 91a7 b33d 517e f93b
000000c0: 8f24 21be 521b 643d 4316 893d f448 11be
000000d0: dc9e 9fbd ac0e 403c 6b9c 2abe 245d 24be
000000e0: 9d56 d4bd 076e 973d 8569 a43d cd51 eabd
000000f0: 2128 c23c e391 673d 0aa4 6abc 2a25 843d
00000100: 0e42 253d dfed 7ebd 311f 343b a589 d0bd
00000110: e730 d53b 0e75 593b edd3 fb3d 7a33 9bbc
00000120: 9b13 b5bd 354b 733d 6969 5f3d 9f3d 8d3d
00000130: dfbe 0cbe ef68 eaba 6e85 b539 a13e 2b3d
00000140: 2ff7 e83d e68a b0bd 3177 9e3d 07ec 1d3e
00000150: 040e f43b 07f2 ab3d 6499 4e3e aecf 6cbd
00000160: bcb3 99bd 23d8 04bc b371 7dbd bd75 b7bd
00000170: 74d7 43bd 5663 1fbe 8c73 00bd cc40 82be
00000180: 6d7a 96bc e3fc 8dbd 6b8f b4bb 2e71 9ebd
00000190: fadc 01be fb3e aabc b79f 88bd 6c40 97bd
000001a0: a73e d83c 4ab8 563d a880 413d dfa0 bbbd
000001b0: cfd4 843b 796f 203d 2dea b83d d28c 133d
000001c0: 7a32 cbbc 890b 40bd a155 cfbd 1b4b 70bd
000001d0: c990 ad3c 3c27 ddbd 43ca 393c 8e25 1bbe
000001e0: 21eb 1abe ba01 a1bd 1991 22bc 8451 d2bb
000001f0: 2465 aabc 1205 22bb c2c2 cbbd c167 bcbc
00000200: 003f d43c 1800 e93b 2b9e 51bd 801c bcbb
00000210: 3693 893d b9ef f4bc 8353 99bd 7846 96bd
00000220: 0c1e f4bd 42fc 1b3d af3b a53d 39b8 4cbd
00000230: 90ff 903d 30a9 31be a934 96bc 69cc 65bd
00000240: eeb9 2dbd 88cc b7bd 842e 04be d550 b03b
00000250: 992e ffbc 6427 de3c 64c5 863d 9bbd ed3c
00000260: 2327 863d b95d 0e3d 7018 183c 4005 b73c
00000270: 212c b1bb e1c0 4abd 3198 cfba 6bd2 3b3b
00000280: b389 3e3c 0b76 3bbe a6bb e0bd 3ebd 073e
00000290: f5fd 173d 4249 aebd 1575 5a3d 41d3 a7bd
000002a0: ae84 e0bd af67 4d3d 4aa1 243d 34af 9c3d
000002b0: d8ab c13c 7939 4d3b b810 babd fbb8 23be
000002c0: 24c8 00be c972 a63c 3565 33be abf2 0a3b
000002d0: 511e d4bc 90b5 afbc e9d6 f2bb b4e3 d53d
000002e0: 301a 4d3d c61c 9c3c 88d9 853d 26f0 bebd
000002f0: e9ae b2bd f1ca 333d 202e 893d 9155 c43d
00000300: 8e62 e1bd 6b07 2fbe e4e2 b13c 84c4 f0bc
00000310: 0e56 ed3c 172a cc3d 3006 e2bd 1aed 89bb
00000320: c3a5 ce3c 6e0c d5bc 2839 4f3c 73d0 eabc
00000330: 4196 df3c 52f9 2f3c 2a44 7ebc f059 c73c
00000340: 972e b1bc f462 aabc 8eed adbc 677b 353d
00000350: 404c 76bc 531d 85bc 2adf b5bd 15b1 a1bd
00000360: cd3f 253d 8f8d 10bd cfeb 5bbc bdc5 debd
00000370: e135 fabd e12f d5bd cbae 0bbe a184 b1bd
00000380: 27c1 753c 3e81 683d f743 b8bd fc74 d5bd
00000390: 8614 15be 1963 4abd aa44 06bd b55e 43bd
000003a0: 382f 9f3c 932f efbc 77b1 353d bd97 b8bd
000003b0: 119e f4bd 5411 7ebd e79c 893d 592f 123d
000003c0: fcbd c23c 285b bbbc 393b ba3b c0b2 7bbd
000003d0: 8a8e 0ebc c047 933d 760c 7f3c 8bda 8abd
000003e0: b919 c7bd a976 0cbe 2857 2ebd 73df babd
000003f0: a86c 593c a1c9 753c 19de 0fbc 00c0 86bc

net.4.bias f4 [7]
2.0217054 1.9443386 2.0567412 1.9759029 1.982346 1.9538269 2.0901954
00000000: 9f63 0140 16e0 f83f a6a1 0340 63ea fc3f
00000010: 84bd fd3f 0017 fa3f c3c5 0540

net.0.weight f4 [128, 31]
-0.13083866 0.14419514 0.017425552 -0.01996547 -0.13546556 0.13754109 -0.014777288 -0.16501711
0.032909423 -0.17478289 -0.10279939 0.09757376 -0.14672174 0.12089908 -0.07749056 0.15380645
0.12691137 -0.11049499 0.15529972 -0.09449231 -0.15142816 0.14100033 0.014224678 -0.08249559
-0.15008423 0.15059337 -0.04539521 -0.15133995 -0.092032336 -0.09358554 0.13971359 -0.03326626
-0.009583935 0.10179806 0.16529542 0.031405523 -0.100255534 0.087843776 0.06512122 -0.09990716
0.13425162 0.061553508 -0.12229605 -0.1071496 0.0678114 -0.16571379 0.1643337 -0.12590954
-0.028202534 0.0745281 -0.10498064 -0.051178455 0.16405573 -0.1794362 0.010210916 0.03743425
-0.043402106 0.17354509 0.04660739 0.0910078 0.044151977 -0.17859153 -0.024479508 -0.12050906
-0.14266646 -0.105712995 0.010017231 0.17655927 -0.013764143 -0.0887892 0.090887755 -0.116596565
0.17818922 0.013943002 0.14385384 -0.13962871 -0.17253268 0.13366887 -0.009991676 0.041311428
-0.033148766 -0.16852531 -0.057236627 -0.07963299 0.10669702 0.1246227 -0.13601294 -0.1103339
-0.067318246 0.07156685 0.060492247 -0.0005671829 -0.1455724 0.0871495 -0.13659632 0.09737539
0.15353605 0.12945372 -0.17482825 -0.17739396 -0.027695552 -0.055251606 0.1592882 0.0975931
-0.08933387 -0.03323704 -0.17755976 0.119452715 0.055427626 0.17524707 0.018073887 0.15545234
-0.108584866 0.07171923 -0.1522327 0.052494973 -0.11871626 -0.13462839 0.093048334 0.051628843
0.064864054 -0.13205285 0.13156539 -0.09183022 0.06937753 0.1536631 0.15468282 -0.0072521865
-0.03699036 0.103972286 0.029586434 -0.16670947 -0.16407554 0.12886792 0.08363262 -0.0026888996
-0.035151318 0.17948762 -0.12437226 0.16980141 0.017865896 -0.13940313 0.10195598 -0.06457917
0.16993743 -0.03560008 -0.16470829 0.0018365234 -0.037054583 0.1380083 -0.08843715 0.13491514
0.074888825 0.07306096 -0.08424756 -0.114526354 0.04290755 -0.059633933 0.16552308 -0.14819984
0.045610294 0.07974461 -0.09694027 -0.096662335 0.116888255 0.07433358 0.0940648 -0.061524123
0.112591445 0.16703773 0.112294585 0.07770583 0.14791965 -0.050471306 -0.16472156 -0.15895303
0.15406126 0.05926308 0.12724897 0.07356468 0.17501491 0.08053684 0.1698142 -0.12617084
0.15467146 -0.13433124 -0.12737985 -0.1303534 -0.171448 -0.17549567 0.058183983 -0.002308622
-0.113928996 -0.15731396 0.10022724 -0.06561895 -0.010650158 -0.03538917 -0.12089498 0.12908804
-0.118399106 0.10262734 0.034417942 0.002905637 -0.097213835 0.044586703 0.06449936 -0.124057375
-0.051550165 0.074721545 0.111953855 0.0020384192 -0.086139165 0.1587655 0.057264894 -0.10039858
0.08723843 0.07067296 0.113090485 -0.16985825 -0.1377987 0.038921937 0.04394251 -0.15102619
-0.16708708 0.044710517 0.09009549 0.06663144 -0.04855995 -0.005141631 -0.04054986 -0.08207772
-0.00364466 -0.027446046 0.067947224 0.106922716 -0.002076894 0.026452497 0.11715311 -0.0447817
0.0050843954 -0.15263496 0.049674496 0.011151075 0.0031419694 -0.0715091 -0.17040342 -0.10594268
0.11486855 -0.12463542 0.02165626 0.16541326 0.08551377 -0.13405687 -0.13777184 -0.07779035
00000000: 92fa 05be e4a7 133e 08c0 8e3c a08e a3bc
00000010: 7cb7 0abe 92d7 0c3e 701c 72bc 3ffa 28be
00000020: 08cc 063d 49fa 32be 7d88 d2bd c0d4 c73d
00000030: 393e 16be f099 f73d 5fb3 9ebd 707f 1d3e
00000040: 0ef5 013e 334b e2bd e406 1f3e 2f85 c1bd
00000050: fc0f 1bbe 6462 103e a00e 693c 73f3 a8bd
00000060: aeaf 19be 2635 1a3e 54f0 39bd dcf8 1abe
00000070: 737b bcbd c7a9 bfbd 1411 0f3e 3442 08bd
00000080: f005 1dbc 807b d03d 3443 293e 14a3 003d
00000090: c652 cdbd 70e7 b33d 465e 853d 209c ccbd
000000a0: 4279 093e 881f 7c3d 5a76 fabd 4071 dbbd
000000b0: b4e0 8a3d e0b0 29be 1847 283e 6eee 00be
000000c0: 0009 e7bc 30a2 983d 1700 d7bd 80a0 51bd
000000d0: 3afe 273e 20be 37be b04b 273c a854 193d
000000e0: 68c6 31bd ceb5 313e 64e7 3e3d 4c62 ba3d
000000f0: b4d8 343d b3e0 36be 4089 c8bc 74cd f6bd
00000100: 2817 12be 0e80 d8bd 501f 243c f4cb 343e
00000110: 0083 61bc 1dd7 b5bd 5c23 ba3d 2eca eebd
00000120: 3c77 363e 3071 643c 6c4e 133e d4fa 0ebe
00000130: 68ac 30be 7ee0 083e 20b4 23bc 2c36 293d
00000140: 00c7 07bd e691 2cbe f470 6abd 9f16 a3bd
00000150: f883 da3d 303a ff3d fa46 0bbe bdf6 e1bd
00000160: 26de 89bd a491 923d b8c6 773d 00af 14ba
00000170: ee10 15be 707b b23d e8df 0bbe c06c c73d
00000180: 8e38 1d3e 848f 043e 2d06 33be c3a6 35be
00000190: c8e1 e2bc 824f 62bd 721c 233e e4de c73d
000001a0: adf4 b6bd 9023 08bd 3ad2 35be a0a3 f43d
000001b0: 1408 633d f873 333e b00f 943c e62e 1f3e
000001c0: be61 debd 88e1 923d e4e2 1bbe f804 573d
000001d0: 8321 f3bd 06dc 09be 2090 be3d c478 533d
000001e0: 72d7 843d dd38 07be 14b9 063e 7b11 bcbd
000001f0: ce15 8e3d dc59 1d3e 2c65 1e3e c0a3 edbb
00000200: 3483 17bd 6cef d43d 405f f23c e3b5 2abe
00000210: 6b03 28be f4f5 033e 9447 ab3d 4038 30bb
00000220: d4fa 0fbd 9acb 373e e2b6 febd 6ce0 2d3e
00000230: 805b 923c b2bf 0ebe 4cce d03d 1542 84bd
00000240: 1404 2e3e 64d1 11bd 4aa9 28be 80b7 f03a
00000250: 8cc6 17bd 0c52 0d3e 891e b5bd 3227 0a3e
00000260: 505f 993d fca0 953d fc89 acbd cb8c eabd
00000270: d4bf 2f3d b642 74bd e27e 293e b3c1 17be
00000280: dcd1 3a3d 2451 a33d 9f88 c6bd e7f6 c5bd
00000290: 1c63 ef3d 343c 983d 0ca5 c03d b800 7cbd
000002a0: 5896 e63d f00b 2b3e b4fa e53d 3c24 9f3d
000002b0: 4078 173e 00bb 4ebd c5ac 28be 95c4 22be
000002c0: 3cc2 1d3e d8bd 723d 8e4d 023e 14a9 963d
000002d0: 1c37 333e 80f0 a43d c6e3 2d3e ee32 01be
000002e0: 3262 1e3e 218e 09be dd6f 02be 5d7b 05be
000002f0: 1190 2fbe 23b5 33be 5452 6e3d 404c 17bb
00000300: 9b53 e9bd e916 21be f043 cd3d 3a63 86bd
00000310: 007e 2ebc 3cf4 10bd ca97 f7bd a82f 043e
00000320: 3b7b f2bd 482e d23d d4f9 0c3d 806c 3e3b
00000330: 0c18 c7bd 8ca0 363d 3e18 843d cb11 febd
00000340: 4426 53bd 9c07 993d 1048 e53d 0097 053b
00000350: bb69 b0bd 6c93 223e 988e 6a3d c59d cdbd
00000360: 10aa b23d fcbc 903d fc9b e73d 52ef 2dbe
00000370: 1a1b 0dbe 9c6c 1f3d 10fd 333d 9ca6 1abe
00000380: e018 2bbe 6022 373d fc83 b83d 1076 883d
00000390: cce6 46bd 207b a8bb 9c17 26bd 5d18 a8bd
000003a0: 40db 6ebb 88d6 e0bc ea27 8b3d 4cfa da3d
000003b0: 801c 08bb e8b2 d83c f8ed ef3d 046d 37bd
000003c0: 009b a63b 574c 1cbe 7c77 4b3d 00b3 363c
000003d0: 80e9 4d3b 5d73 92bd 3c7e 2ebe 7af8 d8bd
000003e0: 3440 eb3d db40 ffbd 7868 b13c 1862 293e
000003f0: d821 af3d 3446 09be 1014 0dbe 8c50 9fbd

net.0.bias f4 [128]
-0.025425196 0.13784072 -0.11871551 -0.08560078 0.14935485 -0.009924471 0.0069018602 0.064399675
-0.0067405105 0.038378626 0.0811705 0.1431809 -0.11119737 0.115148336 0.06954165 0.0020955056
0.07689065 -0.023414657 -0.037124053 -0.13077635 -0.073652364 -0.010788724 -0.128892 -0.1482761
-0.11053083 0.063026994 -0.11379867 -0.05953814 0.084676534 0.091748804 -0.097654484 -0.15955135
0.076260746 0.12035194 0.1502215 0.091754794 0.004539311 -0.14214535 -0.09916183 0.12620449
0.012696281 0.014685273 0.02622278 -0.014205456 -0.007858813 0.1379948 -0.099768266 0.046924412
-0.1409626 0.13432714 -0.087334454 -0.17788173 0.13640437 0.11239201 -0.10166634 -0.078445174
-0.030707538 0.1281363 -0.14501914 0.1393939 -0.038831472 -0.13725643 -0.17711174 0.004118651
-0.05483061 0.04760517 0.03334813 0.008869648 -0.020606443 0.15361315 0.019544348 0.132496
-0.1489302 0.011663005 -0.0066943765 0.118141145 -0.12854843 -0.08603761 0.098956764 0.058005735
0.14104304 -0.087011285 -0.17133866 0.0006198436 -0.0481385 -0.008560136 -0.03301978 -0.15118921
0.11562997 -0.12222238 -0.02859892 0.10212633 0.099015355 -0.053897664 -0.11886342 0.15146369
0.010495827 -0.059236035 0.03110753 0.11337054 -0.11317877 0.073955625 -0.06082511 0.013610214
-0.049055696 0.11422825 0.09489873 0.15201035 -0.06819227 0.05728069 -0.17773691 -0.08233047
0.014352202 -0.15123853 -0.08191053 0.13210583 -0.14579475 -0.13033198 -0.16141765 0.00800398
0.04670751 -0.021434426 0.07116613 -0.020267084 0.05281499 -0.1537587 0.035373256 -0.13646513
00000000: 8048 d0bc 1e26 0d3e 1e21 f3bd 764f afbd
00000010: 7af0 183e 409a 22bc 0029 e23b fae3 833d
00000020: 80df dcbb e832 1d3d b83c a63d 049e 123e
00000030: 72bb e3bd e4d2 eb3d da6b 8e3d c054 093b
00000040: d878 9d3d 18d0 bfbc 640f 18bd 3cea 05be
00000050: 0dd7 96bd 30c3 30bc 44fc 03be b1d5 17be
00000060: fd5d e2bd 4c14 813d 470f e9bd 44de 73bd
00000070: e46a ad3d cce6 bb3d 13ff c7bd 6e61 23be
00000080: 982e 9c3d 147b f63d aad3 193e f0e9 bb3d
00000090: 80be 943b 8d8e 11be 5c15 cbbd c03b 013e
000000a0: 1004 503c 809a 703c 28d1 d63c 00be 68bc
000000b0: 40c2 00bc 824e 0d3e 4e53 ccbd d033 403d
000000c0: 8058 10be 0e8d 093e 68dc b2bd a126 36be
000000d0: 96ad 0b3e c82d e63d 7136 d0bd dda7 a0bd
000000e0: 608e fbbc 2a36 033e e67f 14be 46bd 0e3e
000000f0: c00d 1fbd f38c 0cbe c85c 35be c0f5 863b
00000100: 1096 60bd a4fd 423d 0c98 083d 0052 113c
00000110: d8ce a8bc c44c 1d3e 781b a03c 08ad 073e
00000120: 2981 18be 3016 3f3c 805c dbbb fcf3 f13d
00000130: 33a2 03be 7d34 b0bd d8a9 ca3d 6c97 6d3d
00000140: 966d 103e f932 b2bd 6773 2fbe 007d 223a
00000150: e02c 45bd d03f 0cbc c03f 07bd 58d1 1abe
00000160: 68cf ec3d ba4f fabd 4848 eabc 9c27 d13d
00000170: 90c8 ca3d ccc3 5cbd aa6e f3bd 4c19 1b3e
00000180: b0f6 2b3c 7ca1 72bd 38d5 fe3c d02e e83d
00000190: 45ca e7bd 0c76 973d c023 79bd 60fd 5e3c
000001a0: a0ee 48bd 80f0 e93d 445a c23d 9aa8 1b3e
000001b0: 64a8 8bbd 289f 6a3d aa00 36be e19c a8bd
000001c0: 8025 6b3c 46de 1abe b5c0 a7bd c046 073e
000001d0: 384b 15be bf75 05be ab4a 25be 2023 033c
000001e0: 6050 3f3d 4097 afbc 8cbf 913d 2807 a6bc
000001f0: 8854 583d ec72 1dbe 8ce3 103d 84bd 0bbe

net.2.weight f4 [128, 128]
-0.013676859 0.008815184 -0.029003669 0.004943818 -0.019931331 -0.055400997 -0.05977641 0.0013782829
-0.0029404834 0.03302764 0.031622157 0.041536026 -0.014463134 -0.06579138 -0.049280107 -0.0843276
-0.048566952 -0.018972658 -0.029948719 0.023580775 0.029696882 0.06516757 0.019866854 0.016654871
-0.06365358 -0.0025055334 -0.07818481 -0.07690509 -0.07159764 -0.010319047 0.061243452 -0.035764012
0.04612363 -0.0005303547 0.057398908 0.04129397 -0.08064636 -0.055529788 -0.0752898 -0.06049516
0.030393384 -0.023104466 0.06976084 -0.023764722 0.023962125 -0.045144163 0.04430137 0.03239488
0.033351682 0.025765665 0.030619234 0.013219379 0.06669123 0.060297124 0.033281006 0.063058265
0.08295981 -0.04730123 -0.07017608 0.07162169 -0.026366383 -0.03765291 -0.020747565 -0.027851626
0.08595165 0.056780852 0.08144312 -0.027468387 -0.0097329095 0.05683937 -0.009581275 -0.044797283
0.05103778 -0.040841147 -0.07224967 -0.014121659 0.036968492 -0.0405298 -0.009652853 0.042953394
-0.0537164 0.013707496 0.0065169036 0.057291485 -0.0711698 -0.00033836812 -0.07733643 0.008693829
0.04729464 -0.03427897 -0.058287848 -0.022589348 -0.040396646 0.009239927 -0.06650122 0.05661481
0.05695518 0.049379192 0.057585992 -0.07265337 0.0052934885 -0.03903738 0.033902727 -0.033895157
0.015870228 -0.051478393 0.061733462 -0.08827379 0.004876651 -0.013286561 -0.0007094145 -0.05182901
0.07096792 0.017192207 0.056676514 -0.013647668 -0.026063401 -0.021267742 -0.0047573596 -0.06051434
-0.019011356 0.039213605 -0.015386276 0.02311197 0.050923936 -0.027376022 -0.006331332 -0.0541744
-0.031217497 -0.059944566 0.015046626 0.028249517 -0.017775737 0.056747444 -0.03963104 0.026203148
-0.06862396 -0.04280435 -0.03883085 -0.025570333 -0.043474283 -0.056409173 -0.051935297 0.0285009
-0.037767727 -0.06863568 0.023713462 -0.0042668507 -0.07685838 -0.08256127 -0.013339698 -0.041785114
-0.022120908 -0.046379372 0.02017577 -0.0392571 -0.005759716 0.031622134 0.0057046935 0.073189996
-0.06345513 -0.046563186 0.048256747 -0.077991016 -0.085522644 -0.07363464 -0.017765403 0.0722995
-0.056174688 0.067543395 0.011608683 0.0076314136 0.057968073 0.039195724 -0.05952674 -0.058931828
-0.016659662 0.070909105 -0.014084853 0.008545168 0.08080604 0.06808903 -0.012991324 -0.0802611
-0.03272487 -0.08236297 -0.030372009 0.085440375 -0.06275213 0.0652938 0.06965331 -0.067574665
-0.04801546 0.029149368 0.05047273 0.082041614 0.021130629 0.054678686 0.019821607 0.03997334
-0.07228361 0.050981678 0.006974399 0.05726657 0.04271411 -0.03187544 -0.0029640645 -0.03605081
-0.07085863 -0.03993296 0.08478852 0.07666389 0.04625901 -0.0790173 0.009924948 0.07217824
-0.034940507 -0.035299957 0.049180396 -0.053230964 -0.07179881 -0.012298122 0.021137416 0.0010050237
-0.06808376 0.047785737 0.0796923 -0.05804783 -0.07795324 -0.06561727 0.027865358 -0.02483327
0.08197086 -0.033330034 -0.023431435 0.05694356 0.018850744 -0.0023207963 0.08246534 -0.014340013
-0.0028631836 -0.08142351 0.08060206 0.06675539 -0.06504673 -0.038384955 0.008814983 0.01827301
0.06297705 -0.079859406 0.03457977 -0.07052683 -0.0062011406 0.078790076 0.01860822 0.0057659
00000000: e814 60bc 906d 103c 1a99 edbc c0ff a13b
00000010: 0847 a3bc 28ec 62bd 1cd8 74bd 80a7 b43a
00000020: 20b5 40bb fe47 073d 3c86 013d ae21 2a3d
00000030: c8f6 6cbc a2bd 86bd f0d9 49bd f3b3 acbd
00000040: 24ee 46bd 8c6c 9bbc 0457 f5bc 782c c13c
00000050: e046 f33c 9376 853d d0bf a23c cc6f 883c
00000060: cf5c 82bd e033 24bb 5c1f a0bd 6a80 9dbd
00000070: c9a1 92bd 3811 29bc 6ada 7a3d 497d 12bd
00000080: 22ec 3c3d 8007 0bba 1e1b 6b3d de23 293d
00000090: eb29 a5bd 3473 63bd 8a31 9abd c6c9 77bd
000000a0: 8cfb f83c 9445 bdbc c5de 8e3d 3cae c2bc
000000b0: 384c c43c 16e9 38bd 5a75 353d 7eb0 043d
000000c0: c69b 083d 8412 d33c 30d5 fa3c 1896 583c
000000d0: 6995 883d 1efa 763d aa51 083d b124 813d
000000e0: d5e6 a93d efbe 41bd 7ab8 8fbd 65ae 923d
000000f0: 50fe d7bc f039 1abd ccf6 a9bc 1829 e4bc
00000100: 6b07 b03d 0a93 683d a7cb a63d 6205 e1bc
00000110: c876 1fbc 66d0 683d c8fa 1cbc 5b7d 37bd
00000120: fe0c 513d 0c49 27bd a3f7 93bd 885e 67bc
00000130: 466c 173d 9302 26bd 0027 1ebc e6ef 2f3d
00000140: ba05 5cbd 6895 603c c08b d53b 7aaa 6a3d
00000150: 79c1 91bd 0067 b1b9 9062 9ebd 9070 0e3c
00000160: 06b8 413d 1b68 0cbd 3dbf 6ebd 4c0d b9bc
00000170: f476 25bd 1063 173c cb31 88bd eee4 673d
00000180: d649 693d d641 4a3d 4adf 6b3d 4acb 94bd
00000190: 0075 ad3b a9e5 1fbd 96dd 0a3d a6d5 0abd
000001a0: 4802 823c 02db 52bd 3adc 7c3d e4c8 b4bd
000001b0: 50cc 9f3b e0af 59bc 00f8 39ba a84a 54bd
000001c0: a157 913d acd6 8c3c a225 683d 789a 5fbc
000001d0: ea82 d5bc b039 aebc a0e3 9bbb e2dd 77bd
000001e0: b4bd 9bbc 729e 203d b816 7cbc 5055 bd3c
000001f0: 9e95 503d ae43 e0bc 1077 cfbb fae5 5dbd
00000200: d6bb ffbc 6f88 75bd 2086 763c 886b e73c
00000210: 6c9e 91bc 0270 683d 2854 22bd fca7 d63c
00000220: b88a 8cbd 9d53 2fbd 190d 1fbd e078 d1bc
00000230: 1712 32bd 4e0d 67bd 1bba 54bd b87a e93c
00000240: 55b2 1abd dd90 8cbd bc42 c23c f0d0 8bbb
00000250: ed67 9dbd e215 a9bd c08e 5abc de26 2bbd
00000260: e836 b5bc 4cf8 3dbd a847 a53c 0ecc 20bd
00000270: 00bc bcbb 3686 013d 70ee ba3b a3e4 953d
00000280: c3f4 81bd 0ab9 3ebd dea8 453d c1b9 9fbd
00000290: 7f26 afbd c2cd 96bd c088 91bc c311 943d
000002a0: 6e17 66bd 3154 8a3d 5832 3e3c f010 fa3b
000002b0: ee6f 6d3d b28b 203d 50d2 73bd 8062 71bd
000002c0: d879 88bc cb38 913d 28c4 66bc 0801 0c3c
000002d0: a37d a53d 4372 8b3d 90d9 54bc ee5f a4bd
000002e0: 830a 06bd ebad a8bd b8ce f8bc 5dfb ae3d
000002f0: 3084 80bd c1b8 853d 65a6 8e3d 9664 8abd
00000300: dcab 44bd a8ca ee3c 7ebc 4e3d 6f05 a83d
00000310: 241a ad3c c2f6 5f3d ec60 a23c 16bb 233d
00000320: 6e09 94bd 2ad2 503d 8089 e43b 5a90 6a3d
00000330: fef4 2e3d d28f 02bd c040 42bb 04aa 13bd
00000340: 541e 91bd be90 23bd 9ba5 ad3d f501 9d3d
00000350: 167a 3d3d d2d3 a1bd 409c 223c 2fd2 933d
00000360: c71d 0fbd b096 10bd 6271 493d b608 5abd
00000370: 410b 93bd 107e 49bc 6028 ad3c 00bb 833a
00000380: 806f 8bbd faba 433d b735 a33d 90c3 6dbd
00000390: f3a5 9fbd 5962 86bd e445 e43c 246f cbbc
000003a0: 57e0 a73d 1385 08bd 48f3 bfbc a63d 693d
000003b0: e06c 9a3c 8018 18bb 97e3 a83d 60f2 6abc
000003c0: 40a4 3bbb 5fc1 a6bd b112 a53d 0db7 883d
000003d0: 3837 85bd 8b39 1dbd b86c 103c 48b1 953c
000003e0: 1dfa 803d 548d a3bd 84a3 0d3d 5f70 90bd
000003f0: f032 cbbb b15c a13d 4470 983c e0ef bc3b

net.2.bias f4 [128]
0.049000673 -0.06492425 -0.0029944628 -0.06505095 0.03427372 -0.053979617 -0.06884885 -0.060201228
0.05586561 0.021413088 0.036026902 0.06482773 -0.069585234 0.036984988 0.0032984093 0.0065039992
0.04238803 -0.014623828 0.04514473 -0.07651855 -0.08281633 0.009857334 0.038248412 0.04361584
0.08723802 -0.035738874 0.027979143 -0.0064009875 0.041924544 -0.032476507 -0.053026423 -0.058496855
0.05367347 0.077401616 -0.062380474 -0.029522613 -0.028172933 0.083447956 -0.045352936 0.069998406
0.00075151026 0.0455397 -0.003115356 -0.057784487 -0.02611738 -0.0023649558 0.06392104 -0.028914139
-0.06871872 -0.037774514 -0.059518747 -0.06829062 -0.028993376 -0.017523877 0.075159065 0.012931652
0.03365451 0.010438085 -0.0871902 0.044926874 -0.07647301 0.04157024 0.03943018 -0.025393568
0.019243293 -0.032075007 -0.015996374 0.07743361 -0.075428024 0.07919001 0.060519747 0.030629776
-0.05524278 -0.061306626 0.022897035 -0.06621367 -0.052073233 -0.038762625 0.0067410544 0.014584705
0.013791367 0.07443116 -0.08482049 0.061750345 -0.008000568 -0.021471225 0.0019266978 -0.022438288
0.0007915199 0.065332435 -0.05962526 0.039687984 -0.051634304 0.08834208 0.04832203 -0.035924233
-0.029219516 0.07428544 0.008370712 0.08238878 0.048850022 0.023901321 0.020353548 -0.07189478
0.06436517 0.02110216 -0.022496387 0.007057272 0.083071984 0.01715026 -0.046217065 0.005207114
0.047089987 0.074035816 0.0025267452 -0.03868342 -0.061259326 -0.040933356 0.017321035 0.061238058
0.022420198 -0.034383904 -0.03396522 0.034445807 0.010467961 0.008348487 -0.08756909 0.07421488
00000000: eeb4 483d 01f7 84bd c03e 44bb 6f39 85bd
00000010: 9a62 0c3d bb19 5dbd a000 8dbd 9095 76bd
00000020: 56d3 643d 806a af3c f290 133d 67c4 843d
00000030: b482 8ebd 927d 173d 202a 583b 801f d53b
00000040: 129f 2d3d c898 6fbc aee9 383d c2b5 9cbd
00000050: 9c9b a9bd a880 213c 5eaa 1c3d 86a6 323d
00000060: d9a9 b23d ed62 12bd 8434 e53c 60bf d1bb
00000070: 12b9 2b3d 1606 05bd 3c32 59bd 669a 6fbd
00000080: b6d8 5b3d bd84 9e3d ab82 7fbd 68d9 f1bc
00000090: ecca e6bc c3e6 aa3d 00c4 39bd 535b 8f3d
000000a0: 0001 453a d687 3a3d 002b 4cbb 6daf 6cbd
000000b0: 1ef4 d5bc 60fd 1abb 09e9 823d 58dd ecbc
000000c0: 66bc 8cbd 73b9 1abd eec9 73bd f4db 8bbd
000000d0: 8483 edbc 3c8e 8fbc ffec 993d 48df 533c
000000e0: 50d9 093d 8004 2b3c c790 b2bd 3e05 383d
000000f0: e29d 9cbd 8e45 2a3d 8a81 213d 2c06 d0bc
00000100: 1ca4 9d3c 1561 03bd d40a 83bc 8395 9e3d
00000110: 027a 9abd 5f2e a23d 8ee3 773d 4ceb fa3c
00000120: 4146 62bd a81c 7bbd 9092 bb3c 089b 87bd
00000130: be4a 55bd 8fc5 1ebd 10e4 dc3b b0f4 6e3c
00000140: 30f5 613c 5d6f 983d 5db6 adbd eeed 7c3d
00000150: d014 03bc 6ce4 afbc 4089 fc3a 80d0 b7bc
00000160: 007e 4f3a 03cd 853d 9e39 74bd de8f 223d
00000170: 7e7e 53bd b1ec b43d 52ed 453d 4a25 13bd
00000180: c45d efbc f722 983d 5025 093c 73bb a83d
00000190: f616 483d b4cc c33c 7cbc a63c 923d 93bd
000001a0: e3d1 833d 70de ac3c 584a b8bc b040 e73b
000001b0: a521 aa3d b47e 8c3c 1b4e 3dbd 70a0 aa3b
000001c0: 6ee1 403d 17a0 973d c097 253b 8172 1ebd
000001d0: 0feb 7abd bca9 27bd d8e4 8d3c c2d4 7a3d
000001e0: 90aa b73c 23d6 0cbd 1d1f 0bbd 0c17 0d3d
000001f0: d081 2b3c 18c8 083c 6c57 b3bd f9fd 973d

net.4.weight f4 [7, 128]
0.05859334 -0.014820822 0.06869552 -0.08647318 -0.053141497 -0.010366641 -0.0034684986 0.036595263
-0.0051995814 0.00988663 0.045399494 -0.08191571 -0.004255928 -0.033239532 0.027970187 0.05861821
0.01628887 0.039499782 -0.034199227 0.012187436 -0.06404906 -0.028268345 0.0766382 -0.059582345
0.031082943 -0.07352014 -0.01458893 0.08202136 -0.0045019984 0.07345948 -0.055943977 0.08363838
0.036286667 0.0049295127 0.06265993 0.07563325 -0.008328207 0.06767822 0.06065113 -0.042509027
0.07961985 -0.021810971 -0.060250077 -0.056453396 -0.070420764 0.04123541 -0.038186688 -0.048397437
-0.079349115 0.05982954 -0.03698194 -0.032794293 -0.07332261 0.066368274 0.013760589 -0.060165502
-0.0036506653 -0.034056485 -0.013755299 0.047874592 0.050743006 -0.087379254 0.030235656 0.07396252
0.060526006 0.03315469 -0.07444168 0.07768015 -0.04266126 -0.0689314 -0.052308884 0.04490953
-0.037842084 -0.051101875 0.070162244 -0.07959442 0.0030931458 -0.017360874 -0.030941464 0.07894764
0.06720076 0.0865001 0.01663822 0.07223285 -0.053458735 -0.012096621 0.0028780326 -0.037777707
0.052519254 -0.07258883 0.015459962 -0.021732539 0.01366654 0.07719312 -0.014651425 0.059681885
-0.037102893 -0.04007656 0.031183697 0.021008447 0.04434011 -0.05438015 -0.020561643 -0.039456226
0.07781374 0.06842766 0.06938485 -0.0061133653 0.08429784 0.038459577 0.012115024 0.0025392622
0.081513114 -0.040124156 0.074540384 -0.012925617 -0.038741194 0.029130258 -0.023474455 0.04359924
0.06506566 0.08536825 -0.0029811114 0.038485877 0.008311003 -0.07219381 0.022252627 -0.035163444
-0.027813759 0.06813473 -0.05196326 -0.018607453 -0.04874576 0.039874204 0.06926452 0.02689574
0.033125587 -0.06415453 0.03399057 -0.017027378 0.038583554 0.06864341 0.054579906 -0.014253497
0.04428392 0.00704512 0.0720777 0.02229321 0.02538763 0.0009079203 0.012039207 -0.069032
-0.057243593 0.042592727 -0.0037629828 0.023878098 0.04915764 0.07429596 0.0056813955 0.08543291
0.027792946 -0.021728747 0.01349584 -0.015905485 -0.0004169494 -0.08453785 0.00075384974 0.06984418
0.050960414 0.017961837 -0.048962034 0.07274965 0.02880986 -0.0022329316 -0.015077129 -0.020261832
0.018786766 0.07174503 0.059814654 -0.0216024 -0.013822734 0.028299585 0.052735753 -0.074869595
-0.011468969 0.021637857 -0.06324878 0.07577545 -0.028226554 0.048330806 -0.08379188 -0.07696236
0.08141128 0.03690756 0.06702202 -0.04815205 -0.011096604 -0.026339471 0.037197687 -0.017031364
0.055676825 0.084933765 -0.06655181 -0.000503622 0.029671215 0.074105136 0.030247673 -0.021103926
0.021592356 -0.05246565 0.056771494 0.08773247 0.07045301 -0.08402471 -0.07074652 -0.030356698
0.052170373 0.021490484 -0.007559873 0.08397115 0.006841108 -0.07794362 0.044285454 -0.0707866
0.08188785 -0.022421017 -0.019903153 0.06661422 -0.0274015 -0.07720524 0.028489053 -0.05820372
0.07813353 -0.07138961 0.036600746 -0.04807082 0.02024503 -0.015406728 0.062108673 0.007794909
-0.014362447 -0.033178948 -0.060453657 -0.0069324076 -0.08562473 -0.07572817 0.054534666 -0.08398395
0.08573944 -0.03691696 -0.027730562 0.08466298 0.069060825 -0.080142096 0.0014979616 0.062825
00000000: 92ff 6f3d 08d3 72bc 3db0 8c3d da18 b1bd
00000010: e6aa 59bd d8d8 29bc c04f 63bb eae4 153d
00000020: 4061 aabb 88fb 213c d2f4 393d 6cc3 a7bd
00000030: 5075 8bbb 2d26 08bd bc21 e53c a619 703d
00000040: 3c70 853c 86ca 213d 7d14 0cbd d0ad 473c
00000050: 272c 83bd 0493 e7bc 7df4 9c3d 9e0c 74bd
00000060: a8a1 fe3c ba91 96bd 6806 6fbc d1fa a73d
00000070: 8085 93bb ed71 963d 8325 65bd 994a ab3d
00000080: 54a1 143d c087 a13b d953 803d 9be5 9a3d
00000090: 0873 08bc e19a 8a3d 526d 783d f21d 2ebd
000000a0: bb0f a33d ecac b2bc c9c8 76bd ad3b 67bd
000000b0: c338 90bd 76e6 283d a569 1cbd 643c 46bd
000000c0: ca81 a2bd d20f 753d 607a 17bd 4f53 06bd
000000d0: 2a2a 96bd 17ec 873d 1874 613c 1a70 76bd
000000e0: 0040 6fbb d07e 0bbd e85d 61bc 2618 443d
000000f0: e6d7 4f3d e5f3 b2bd c4b0 f73c a979 973d
00000100: 1eea 773d 36cd 073d e174 98bd c516 9f3d
00000110: 93bd 2ebd e82b 8dbd d741 56bd 0ef3 373d
00000120: 4d00 1bbd 3350 51bd 39b1 8f3d 6602 a3bd
00000130: 60b6 4a3b 6438 8ebc f478 fdbc 4daf a13d
00000140: 8da0 893d f726 b13d e04c 883c d1ee 933d
00000150: 8cf7 5abd e830 46bc 609d 3c3b ccbc 1abd
00000160: 6e1e 573d 74a9 94bd c84b 7d3c 7008 b2bc
00000170: a0e9 5f3c 6d17 9e3d 880c 70bc fe74 743d
00000180: 34f9 17bd 5227 24bd f474 ff3c e819 ac3c
00000190: fa9d 353d b8bd 5ebd e470 a8bc da9c 21bd
000001a0: cf5c 9f3d cd23 8c3d a519 8e3d a052 c8bb
000001b0: 59a4 ac3d ca87 1d3d 187e 463c c069 263b
000001c0: 59f0 a63d 3a59 24bd a1a8 983d f8c5 53bc
000001d0: 16af 1ebd 94a2 ee3c 804d c0bc 1e95 323d
000001e0: 2541 853d 8dd5 ae3d c05e 43bb 5ea3 1d3d
000001f0: e02a 083c 59da 93bd 244b b63c 8b07 10bd
00000200: aed9 e3bc 398a 8b3d 6dd7 54bd a86e 98bc
00000210: a2a9 47bd 2253 233d 8fda 8d3d 7454 dc3c
00000220: b2ae 073d 7363 83bd b239 0b3d 007d 8bbc
00000230: ca09 1e3d eb94 8c3d 2e8f 5f3d 8087 69bc
00000240: 0e63 353d c0da e63b 799d 933d 40a0 b63c
00000250: b8f9 cf3c 8001 6e3a 1840 453c a660 8dbd
00000260: 4278 6abd b675 2e3d 609c 76bb 009c c33c
00000270: 8659 493d 7b28 983d 002b ba3b 73f7 ae3d
00000280: 08ae e33c 7c00 b2bc a81d 5d3c 384c 82bc
00000290: 009a dab9 2e22 adbd 009e 453a 770a 8f3d
000002a0: debb 503d b424 933c 6a8c 48bd c5fd 943d
000002b0: a802 ec3c 6056 12bb 1006 77bc 24fc a5bc
000002c0: b4e6 993c 0fef 923d 3600 753d 84f7 b0bc
000002d0: c078 62bc 88d4 e73c 7201 583d 3b55 99bd
000002e0: 58e8 3bbc e041 b13c 9488 81bd 2930 9b3d
000002f0: 603b e7bc 86f6 453d 149b abbd 719e 9dbd
00000300: f5ba a63d 622c 173d d742 893d 153b 45bd
00000310: 88ce 35bc e0c5 d7bc 9a5c 183d 5c85 8bbc
00000320: 620d 643d c1f1 ad3d 514c 88bd 8005 04ba
00000330: 0c11 f33c 6fc4 973d f8c9 f73c 24e2 acbc
00000340: 74e2 b03c 39e6 56bd 3a89 683d 15ad b33d
00000350: ab49 903d 2615 acbd 8de3 90bd 9cae f8bc
00000360: 9ab0 553d d00c b03c d0b8 f7bb 11f9 ab3d
00000370: 602b e03b e8a0 9fbd aa64 353d 91f8 90bd
00000380: d1b4 a73d 48ac b7bc f00b a3bc 096d 883d
00000390: 1c79 e0bc c81d 9ebd e061 e93c 0667 6ebd
000003a0: 7904 a03d b734 92bd aaea 153d e8e5 44bd
000003b0: e8d8 a53c 806c 7cbc aa65 7e3d 706c ff3b
000003c0: 7850 6bbc a6e6 07bd 419e 77bd 4029 e3bb
000003d0: 055c afbd 5f17 9bbd be5f 5f3d c7ff abbd
000003e0: 2998 af3d 3d36 17bd 342b e3bc c963 ad3d
000003f0: c36f 8d3d 8a21 a4bd 4057 c43a 65aa 803d
