checkpoints/shared_leader_agent_step50000.pth (torch, 354593 bytes, 24 tensors)

net.0.weight f4 [128, 31]
0	0xbe110608	-0.14162457
1	0x3c24d7f7	0.010061256
2	0x3ef44153	0.47706088
3	0xbfbf7d47	-1.4960107
4	0x3f01fccb	0.50776356
5	0x3f3ab4c5	0.7293208
6	0x3e100817	0.14065586
7	0xbf4d4409	-0.8018194
8	0x3ee64676	0.44975632
9	0xbfe68e72	-1.8012221
10	0x3e8a14a8	0.26968884
11	0x3e8ed9f1	0.2790065
12	0x3f1dd620	0.61654854
13	0xbe96e209	-0.29469326
14	0x3df12001	0.117736824
15	0xbfc363b0	-1.5264797
16	0xbf002e66	-0.500708
17	0xbf807b41	-1.0037614
18	0xbf3c96c6	-0.7366756
19	0xbe6312f8	-0.22175205
20	0xbea30091	-0.3183637
21	0xbfbf8afa	-1.4964287
22	0x3eba14a2	0.36343867
23	0x3f57c8f2	0.84290993
24	0x3e6c58fa	0.23080817
25	0x3c71ad19	0.014750742
26	0xbe10d4eb	-0.14143722
27	0xbf93552a	-1.1510365
28	0xbf0f781f	-0.56042665
29	0xbeab2870	-0.3342929
30	0xc121951f	-10.0989065
31	0x3ecb6b7b	0.3973044
32	0xbf08e286	-0.5347065
33	0x3f2f8368	0.68559885
34	0xbf33c83d	-0.70227414
35	0xbeb5e12d	-0.35523358
36	0x3fc75300	1.5572205
37	0x3d0d0fe8	0.034438998
38	0x3f371aa5	0.7152503
39	0x3ebadd06	0.36496753
40	0xbfc3e34c	-1.530374
41	0xbd1ed577	-0.038777795
42	0x3e95ac2f	0.29232928
43	0xbe6f3580	-0.23360252
44	0xbf2a9c54	-0.6664479
45	0xbd15e428	-0.03659454
46	0x3ecba3ce	0.3977341
47	0xbe9eb4e2	-0.30997378
48	0x3fbe7119	1.4878265
49	0x3eae8ed1	0.34093335
50	0x3e478350	0.19483685
51	0xbede8295	-0.43459
52	0xbe88a0ff	-0.2668533
53	0xbf431130	-0.761981
54	0x3f1f4c61	0.6222592
55	0xbec43791	-0.38323644
56	0xbe493e64	-0.19652706
57	0x3de24324	0.11047962
58	0x3fe52754	1.7902627
59	0x3f82e1fe	1.0225217
60	0x3fb23a1b	1.3923982
61	0xc14484da	-12.282434
62	0xbe824c47	-0.2544882
63	0xbdabd9db	-0.08391162
64	0xbeacfb8e	-0.3378567
65	0xbee8f994	-0.45502913
66	0x3f3ce2d7	0.7378363
67	0xbea2c4b8	-0.3179071
68	0x3edd15b4	0.4318062
69	0xbec61d88	-0.38694406
70	0xbe62aea8	-0.22136939
71	0xbfc06b63	-1.5032772
72	0x3e9f7382	0.31142813
73	0x3e72924b	0.23688619
74	0x3f468199	0.775415
75	0xbf1833e8	-0.594542
76	0xbe8cc713	-0.27495632
77	0xbe987523	-0.29776868
78	0xbf91ec77	-1.1400288
79	0x3faa3521	1.3297464
80	0xbec6f44a	-0.38858253
81	0xbe5af9e7	-0.21384393
82	0xbef144a9	-0.47122696
83	0xbf0a6271	-0.5405646
84	0x3e5aaa5b	0.21354048
85	0xbf002853	-0.5006153
86	0x3dc942bf	0.09827184
87	0xbebf6d52	-0.37388092
88	0xbef8baa4	-0.48579895
89	0xbe89c5a8	-0.26908612
90	0xbf39e020	-0.7260761
91	0x3eee209c	0.46509254
92	0xc1144143	-9.265933
93	0xbec49029	-0.38391235
94	0xbea07126	-0.31336325
95	0x3f28d094	0.65943265
96	0x3ce08a59	0.02740972
97	0xbebbb0ac	-0.36658227
98	0xbf36b8fd	-0.7137602
99	0x3e7eeb21	0.24894382
100	0xbe170cbc	-0.14750952
101	0xbe07b60f	-0.13253044
102	0x3db48c7d	0.088158585
103	0x3ebe47f7	0.3716428
104	0x3f224288	0.6338277
105	0x3ef58888	0.47955728
106	0xbe931ae7	-0.28731462
107	0xbe187d7a	-0.14891616
108	0xbeb1b8db	-0.34711346
109	0xbdf9aeac	-0.12191519
110	0xbfe8a9c5	-1.817681
111	0x3eae96b1	0.34099343
112	0xbeeec4c2	-0.4663449
113	0xbe0a93b9	-0.13532914
114	0x3f307170	0.6892309
115	0x3f5a7119	0.85328823
116	0xbf6ec528	-0.93269587
117	0x3dfeee31	0.12447775
118	0xbe539b18	-0.20664632
119	0xbdeac2c6	-0.11462931
120	0xbf4ec8db	-0.8077523
121	0xbebb79ce	-0.36616367
122	0xbdf17eec	-0.117917866
123	0xc161bd98	-14.108788
124	0xbe870a5b	-0.26375088
125	0xbe170518	-0.14748037
126	0x3d43c8ec	0.047799036
127	0xbd055604	-0.032552734
128	0x3ed73e1f	0.42039582
129	0xbf226d20	-0.6344776
130	0x3e9ab301	0.30214694
131	0x3ebcca24	0.3687297
132	0xbd31455d	-0.04327904
133	0x3e86a711	0.26299337
134	0xbead95ed	-0.33903447
135	0xbe46317e	-0.19354817
136	0x3dea6944	0.11445859
137	0xbe7f2201	-0.24915315
138	0x3e171802	0.14755252
139	0x3daaa7f3	0.08332815
140	0xbf22036f	-0.6328649
141	0xbf5effc3	-0.8710901
142	0xbe89d590	-0.26920748
143	0x3d4f0469	0.050541315
144	0xbebc8d6a	-0.3682664
145	0x3fdae53d	1.7101208
146	0x3f41d0f9	0.7570949
147	0xbeee7b46	-0.46578425
148	0x3d3e872d	0.046515632
149	0x3e79afb7	0.24383436
150	0x3d7301d3	0.05932791
151	0x3f5f9f53	0.87352484
152	0xbf8a6ded	-1.0814797
153	0xbf629dae	-0.8852185
154	0xc164ed70	-14.307968
155	0x3ef88aad	0.485433
156	0xbf266b4b	-0.65007466
157	0xbec18ef7	-0.37804386
158	0xbce30228	-0.02771099
159	0x3bab5213	0.00522829
160	0x3d07d3c8	0.033160955
161	0xbd8c98bc	-0.06865069
162	0xbe630444	-0.22169596
163	0xbeb455d1	-0.35221723
164	0x3fc2e593	1.522631
165	0x3f6ff387	0.9373097
166	0x3ec0fe49	0.37694004
167	0x3f27f279	0.6560436
168	0xbdd6bde7	-0.1048544
169	0xbf2553ef	-0.645812
170	0x3f8d6fa0	1.104969
171	0x3e6d6c72	0.231859
172	0x3e9aa9db	0.30207714
173	0xbf127b28	-0.5721917
174	0x3e364add	0.17801996
175	0xbe8fa48b	-0.28055224
176	0x3fa56afd	1.2923275
177	0x3ec7f48c	0.39053762
178	0x3e3014d7	0.1719545
179	0x3ef38a23	0.47566327
180	0x3eaf6723	0.34258375
181	0xbdbde648	-0.09272438
182	0x3e476395	0.19471581
183	0x3f342258	0.70364904
184	0x3f4db805	0.80358917
185	0xc14b50ce	-12.707228
186	0xbf86e185	-1.0537573
187	0x3eec831f	0.46193787
188	0x3fbd805c	1.4804797
189	0x3ff2de6d	1.8974129
190	0xbf84019d	-1.0312992
191	0x3f67fdec	0.9062183
192	0xbf597c5f	-0.849554
193	0xbeef6344	-0.4675542
194	0xbf013c00	-0.5048218
195	0x3ea03562	0.31290728
196	0xbf5accba	-0.8546864
197	0xbff5a26e	-1.9190195
198	0x3f17d0f7	0.5930323
199	0xbef8fcb6	-0.48630303
200	0xbef7219d	-0.48267832
201	0x3f5cfe8f	0.86325926
202	0xbfd1d6c9	-1.6393672
203	0xbf631e42	-0.88718045
204	0xbe05964e	-0.13045618
205	0xbf4996f3	-0.78745955
206	0x3ec10322	0.37697703
207	0x3f6639ad	0.89931756
208	0x3f55ae6c	0.8346927
209	0xc001555b	-2.0208347
210	0x3de79255	0.113072075
211	0xbd0fea21	-0.035135392
212	0xbe9f5ef5	-0.31127134
213	0x3ea9ae4e	0.33140796
214	0xbf96db8f	-1.1785754
215	0xbfd96ea5	-1.6986891
216	0xc134a6b2	-11.290697
217	0xbdcdd8d6	-0.10051124
218	0xbe984739	-0.2974184
219	0x3f1f0bfe	0.62127674
220	0xbf109355	-0.5647481
221	0xbe40721f	-0.18793534
222	0xbf262c15	-0.64911014
223	0xbf0487f8	-0.5176997
224	0x3ed5c837	0.41754314
225	0xbeb7dfa8	-0.35912824
226	0x3e8f6b4b	0.28011546
227	0xbeaf05c9	-0.341841
228	0x3e493216	0.19648013
229	0xbd2b69dd	-0.041849006
230	0xbece3bef	-0.402801
231	0xbeda472d	-0.42632428
232	0xbd783234	-0.060594752
233	0x3dd9a3cd	0.10626946
234	0xc009e3cd	-2.1545289
235	0xbd9408a7	-0.07228213
236	0xbe64ac41	-0.22331335
237	0x3ecc6c58	0.3992641
238	0x3eb0ffb7	0.34570095
239	0x3f8cdec3	1.1005481
240	0xbfcedf65	-1.6161925
241	0x3e23002e	0.15918037
242	0xbe8aadf1	-0.27085832
243	0xbedeaf4c	-0.43493116
244	0xbf35eb94	-0.7106259
245	0x3f6ef668	0.93344736
246	0xbf7afb13	-0.9803936
247	0xc11f9b2d	-9.975385
248	0xbf14da98	-0.5814605
249	0x3eb79959	0.35859182
250	0x3fa22875	1.2668597
251	0x3f9b50e3	1.213406
252	0xbf652b6d	-0.8951939
253	0xbef11424	-0.4708568
254	0xbed3bff9	-0.413574
255	0xbee8180b	-0.45330843

net.0.bias f4 [128]
0	0xc1243ddb	-10.265101
1	0xc1404deb	-12.019023
2	0xc115c6b8	-9.361015
3	0xc162e8c8	-14.181831
4	0xc161a781	-14.1033945
5	0xc149ea47	-12.619697
6	0xc135f66f	-11.372664
7	0xc11cb3ac	-9.793865
8	0xc174c474	-15.297962
9	0xc09f1fd0	-4.9726334
10	0xc132962f	-11.161666
11	0xc09924af	-4.785728
12	0xc151c97e	-13.111692
13	0xc13d7ca0	-11.842926
14	0xc134fed7	-11.312217
15	0xc12ea089	-10.914193
16	0xc0ec52ea	-7.3851213
17	0xc133403c	-11.203182
18	0xc0f9fa4c	-7.811804
19	0xc064fe9d	-3.5780404
20	0xc13df683	-11.872684
21	0xc0cbc82c	-6.368185
22	0xc1207cf1	-10.030503
23	0xc10fce2f	-8.987838
24	0xc13003a2	-11.000887
25	0xc15002e6	-13.000708
26	0xc153ce56	-13.237875
27	0xc05e8fae	-3.4775195
28	0xc14899cd	-12.537549
29	0xc02017b5	-2.501447
30	0xc048c9ca	-3.1373162
31	0xc1372efc	-11.448971
32	0xbfb4835e	-1.410259
33	0x407e8e37	3.97743
34	0xc13f2e63	-11.948825
35	0xc0812740	-4.0360413
36	0xc15abfdc	-13.671841
37	0xc0c2fa35	-6.093043
38	0xc143506f	-12.207137
39	0xc1126097	-9.1485815
40	0xc0af67d3	-5.481424
41	0xc134428b	-11.266246
42	0xc104b0f6	-8.293203
43	0xc0e63ddd	-7.1950517
44	0xc0f57c2a	-7.6714067
45	0xbf8c7602	-1.0973513
46	0xc0be2e82	-5.943177
47	0xc0e4ee60	-7.1540985
48	0xc1230ed5	-10.191121
49	0xc11fa857	-9.978599
50	0xc15a260b	-13.634288
51	0xc054e73b	-3.3266132
52	0xc0f0c5f7	-7.5241656
53	0xc104963c	-8.286678
54	0xc1038a5f	-8.221282
55	0xbfb98360	-1.4493217
56	0xc12ac4d7	-10.673057
57	0xc01bbe44	-2.433488
58	0xc09ae2a7	-4.8401675
59	0xc156fda5	-13.436925
60	0xc1520e15	-13.128438
61	0xc080903e	-4.0176077
62	0xc09203b9	-4.5629544
63	0xc185939e	-16.697079
64	0xc186ae75	-16.835184
65	0xc1794d2d	-15.581342
66	0xc12276c3	-10.153995
67	0xc0968046	-4.7031584
68	0xc145abb5	-12.354421
69	0xc14b1e9f	-12.694976
70	0xc0fb3dad	-7.851279
71	0x3f3e5bdf	0.74358934
72	0xc10491dd	-8.285611
73	0xc0b6fa4d	-5.7180543
74	0xc0c14eb4	-6.0408573
75	0x408c1f95	4.378855
76	0xc07c2ed0	-3.9403572
77	0xc125363b	-10.32574
78	0xc17a4039	-15.640679
79	0xc1260e00	-10.378418
80	0xbf9d5e64	-1.2294431
81	0xc1466701	-12.400147
82	0xc133bdbb	-11.233821
83	0xc0f29e89	-7.5818524
84	0xc1084bc5	-8.518498
85	0xc118c8ab	-9.548991
86	0xc1147d1c	-9.280544
87	0xc135ac37	-11.354545
88	0xc110597e	-9.021849
89	0xc0e77eb4	-7.2342167
90	0xc169b1d1	-14.605912
91	0xc175a2b3	-15.3522215
92	0xbfd033c3	-1.6265796
93	0xc1267a51	-10.404862
94	0xc0bf25be	-5.973357
95	0xc0bf3a65	-5.9758782
96	0xc0fdcad6	-7.9310102
97	0xbf04f5b3	-0.5193741
98	0xc14ef9c0	-12.935974
99	0xc0a8dc79	-5.276913
100	0xc035d5f3	-2.8411834
101	0xc14f0831	-12.9395
102	0xc14aea5b	-12.682216
103	0xc1367622	-11.403841
104	0xc1643bfa	-14.264643
105	0xc09b76fd	-4.858275
106	0xc10a362d	-8.6382265
107	0xc13ff24d	-11.996655
108	0xc092f71d	-4.592665
109	0xc1374009	-11.453134
110	0xbfc7ed3c	-1.5619273
111	0xc135f06b	-11.371196
112	0xc166a83b	-14.416072
113	0xbe16176a	-0.1465737
114	0xc0311cb7	-2.7673776
115	0xc10322d8	-8.196007
116	0xbf874309	-1.0567333
117	0xc12811a8	-10.504311
118	0xc12f6d70	-10.964218
119	0xc126ff58	-10.43734
120	0xc08ae6d3	-4.340677
121	0xc1599e78	-13.601189
122	0xbface3ee	-1.3507059
123	0xbf34489e	-0.70423305
124	0xc13c6df6	-11.776846
125	0xc0356ce0	-2.8347702
126	0xc1373d0e	-11.452406
127	0xc125953f	-10.348937

net.2.weight f4 [128, 128]
0	0x3ca1fb7d	0.01977324
1	0x3dcbc1e1	0.09949089
2	0xbe2ec2fd	-0.1706657
3	0xbcc86eb1	-0.024466844
4	0xbdf0809e	-0.11743282
5	0x3b21d364	0.002469265
6	0xbd5d2e71	-0.053999368
7	0xbe1db14c	-0.15399665
8	0x3e1b8e69	0.15191044
9	0xbd237618	-0.039907545
10	0x3d81da6c	0.06340489
11	0xbe1c371d	-0.15255399
12	0xbde4a025	-0.11163358
13	0xbe5b1614	-0.21395141
14	0xbd9c70c3	-0.07638695
15	0xbed50b11	-0.41610005
16	0xbdc838ba	-0.09776445
17	0xbe6f0912	-0.23343304
18	0x3c42fc6a	0.0119010005
19	0xbdfa9cf9	-0.122369714
20	0xbe75a6e7	-0.2398945
21	0xbd97d888	-0.07414347
22	0xbc8552f3	-0.016274905
23	0x3c9d1fd4	0.019180216
24	0xbe49aacf	-0.19694065
25	0xbe8530db	-0.26013836
26	0xbe9563ec	-0.29177797
27	0xbe4083f3	-0.18800335
28	0xbec8a9e5	-0.3919212
29	0xbdd34b96	-0.10317151
30	0xbd047028	-0.032333523
31	0xbdf867f4	-0.121292025
32	0x3c187b16	0.00930669
33	0xbdbf24c9	-0.09333188
34	0xbd69928c	-0.057024524
35	0xbde63e42	-0.112423435
36	0xbdfa745f	-0.12229227
37	0xbd4af26b	-0.049547594
38	0xbe1a5229	-0.15070404
39	0xbe8ab7f5	-0.27093473
40	0xbe77f365	-0.24213941
41	0xbe963d59	-0.2934368
42	0xbc38d4e0	-0.011281222
43	0xbea498ec	-0.3214792
44	0xbd6d81a2	-0.057984956
45	0xbea95c04	-0.33078015
46	0xbe3a18ea	-0.18173566
47	0xbe0c3a33	-0.13694076
48	0xbe7c8a86	-0.24662217
49	0xbc4f6595	-0.012658496
50	0xbdf112ea	-0.11771186
51	0xbe365d26	-0.17808971
52	0xbdd5ea2c	-0.10445055
53	0xbe2ed1ec	-0.17072266
54	0xbdb77473	-0.08957758
55	0xbc95559b	-0.018229296
56	0x3b89a374	0.0042003933
57	0xbe1d7f02	-0.15380481
58	0xbed90cee	-0.42392677
59	0xbd035c6f	-0.032070573
60	0xbde66fb2	-0.11251773
61	0xbdc5fdc9	-0.09667546
62	0xbe038630	-0.12844157
63	0xbe85df7f	-0.26147076
64	0xbdbec196	-0.09314267
65	0x3df2a4de	0.11847852
66	0xbcd22e63	-0.025656885
67	0x3cecabc0	0.02889049
68	0xbde5307f	-0.111908905
69	0xbda34c24	-0.07973507
70	0xbdda0619	-0.10645694
71	0xbe6d47e4	-0.23171955
72	0xbd656cc2	-0.056011923
73	0xbe65033a	-0.22364512
74	0xbc22fd6d	-0.009948117
75	0xbe763765	-0.24044569
76	0xbe347678	-0.17623317
77	0x3ddc30d8	0.10751504
78	0x3d8acd62	0.06777455
79	0xbec2c30b	-0.3803943
80	0xbe6a8d97	-0.22905575
81	0xbe612c0e	-0.21989462
82	0xbe3aba5a	-0.1823515
83	0xbd824968	-0.063616574
84	0xbeb149f7	-0.34626743
85	0xbe0d60da	-0.13806477
86	0xbe4f23b3	-0.20228462
87	0xbde44bbd	-0.111472584
88	0x3d808a08	0.06276327
89	0xbd57b1e3	-0.05265988
90	0xbdc45900	-0.09587288
91	0xbe1ba448	-0.15199387
92	0xbe7869ed	-0.24259157
93	0xbe345986	-0.17612275
94	0xbdcd4e9d	-0.1002476
95	0xbd822b21	-0.063558824
96	0xbc9097ad	-0.01765045
97	0xbd9e0f0a	-0.07717712
98	0x3c456853	0.012048799
99	0xbe9e61c7	-0.30933973
100	0xbdd6a242	-0.10480167
101	0xbe87041a	-0.26370317
102	0xbe055bbb	-0.13023274
103	0x3d2ca20d	0.04214673
104	0xbd9c0902	-0.076189056
105	0xbe8c0ef7	-0.27355167
106	0xbdc09061	-0.09402538
107	0xbe180004	-0.14843756
108	0xbe2a027c	-0.1660251
109	0x3cb1e136	0.021713834
110	0xbe40f5aa	-0.18843713
111	0xbe00a1a9	-0.12561668
112	0x3e3e3372	0.18574312
113	0xbd3d7d30	-0.046261966
114	0xbdb3dbb1	-0.08782137
115	0xbe55860c	-0.20851916
116	0xbe562236	-0.20911488
117	0xbe32b584	-0.17452055
118	0xbe25be0d	-0.1618578
119	0xbdf9578c	-0.12174901
120	0xbd2e652a	-0.042576946
121	0xbe10dbbe	-0.14146325
122	0xbe1a0be4	-0.15043598
123	0xbe2df6e5	-0.16988714
124	0xbdc07fd2	-0.0939938
125	0xbe4a9f57	-0.19787346
126	0xbd8a8cbe	-0.06765126
127	0xbcd93d1a	-0.026518393
128	0xbe28ebff	-0.16496275
129	0x3e0e0b6a	0.13871542
130	0x3c84fd9d	0.016234213
131	0xba798887	-0.00095189404
132	0xbe667b18	-0.22507894
133	0xbd8b2e49	-0.067959376
134	0xbd9df058	-0.077118576
135	0xbed164ef	-0.4089732
136	0xbe0ed3e5	-0.13948019
137	0xbdfe3d79	-0.12414069
138	0xbe342738	-0.17593086
139	0xbe17f766	-0.14840469
140	0xbd21fc13	-0.039547037
141	0xbdbc43c4	-0.09192613
142	0xbe635d9d	-0.2220368
143	0xbe170f6b	-0.14751975
144	0xbddabf2f	-0.106809966
145	0x3c7c2c03	0.015391353
146	0xbdd9e800	-0.106399536
147	0xbdee9f99	-0.116515346
148	0xbeb03c17	-0.34420845
149	0xbe38074c	-0.17971534
150	0xbdd31b13	-0.10307898
151	0xbdcc6412	-0.099800244
152	0x3d482207	0.048860576
153	0xbdb1860c	-0.086681455
154	0xbddfea82	-0.10933401
155	0xbe236db1	-0.15959813
156	0xbd7964a5	-0.060886998
157	0xbd0741ed	-0.033021856
158	0xbd49adf2	-0.049238153
159	0xbd2ebec1	-0.042662386
160	0xbdd98b20	-0.10622239
161	0xbdc45aac	-0.09587607
162	0xbcf4f490	-0.029901773
163	0xbe782871	-0.24234177
164	0xbe3e10c1	-0.18561079
165	0xbe2d04ee	-0.16896412
166	0x3d953b33	0.07286682
167	0xbceb8565	-0.02875013
168	0xbe3f5676	-0.18685326
169	0x3d0b6f4c	0.034041688
170	0x3d21b12b	0.0394756
171	0xbcc21509	-0.023691671
172	0xbdc67021	-0.09689356
173	0xbe40908b	-0.18805139
174	0xbe525909	-0.20541777
175	0xbdbdce2a	-0.09267838
176	0xbdce406b	-0.100708805
177	0xbe12249b	-0.14271776
178	0xbd7b7f32	-0.0614006
179	0xbde80a54	-0.11330095
180	0xbdc8abf9	-0.09798426
181	0xbc8dbfc9	-0.017303364
182	0xbe33f301	-0.17573167
183	0xbea91e74	-0.33031046
184	0xbd0e1024	-0.03468336
185	0xbe43c7c9	-0.1911918
186	0xbe8813bf	-0.26577565
187	0x3b4079fe	0.0029369588
188	0xbdd1c940	-0.102434635
189	0xbda2f27f	-0.07956409
190	0xbd94c926	-0.072649285
191	0xbdfed940	-0.12443781
192	0xbdf79e08	-0.12090689
193	0xbda4d606	-0.08048634
194	0x3c350be0	0.0110501945
195	0xbe16b0dc	-0.14715904
196	0x3dbdf915	0.09276024
197	0xbd44c350	-0.048037827
198	0xbe35d9f7	-0.17758928
199	0xbe902faa	-0.28161365
200	0xbd8eaf75	-0.069670595
201	0x3d965c0a	0.07341774
202	0xbd3b5d54	-0.0457433
203	0xbe319869	-0.17343296
204	0xbe54ee33	-0.20793991
205	0x3c1d038e	0.009583367
206	0xbe500270	-0.2031343
207	0xbe3d7187	-0.18500338
208	0xbe1d45f8	-0.15358722
209	0xbe166cbf	-0.14689921
210	0xbd98133d	-0.074255444
211	0x3e2f3854	0.17111331
212	0x3cc6cea3	0.024268454
213	0xbeb5e300	-0.3552475
214	0xbdd38745	-0.10328535
215	0xbe7ca119	-0.24670829
216	0xbe070479	-0.131853
217	0xbd8010d3	-0.06253209
218	0xbdd9f130	-0.10641706
219	0xbdffd254	-0.12491289
220	0xbe8baf11	-0.27282003
221	0xbebc1831	-0.36737207
222	0xbe0c292c	-0.13687581
223	0xbe6a5be6	-0.22886619
224	0xbe4d6766	-0.20058975
225	0xbd5b9e4b	-0.053617757
226	0xbc71f535	-0.014767935
227	0xbd3105fe	-0.043218605
228	0xbe1e7bce	-0.15476915
229	0xbe779763	-0.24178843
230	0x3cd82ee1	0.026389541
231	0xbdef779e	-0.11692737
232	0xbdffc014	-0.12487808
233	0xbdcde99a	-0.100543216
234	0xbdb71e4f	-0.08941328
235	0xbd183e37	-0.037168708
236	0xbdb57732	-0.08860625
237	0x3d3bd186	0.045854114
238	0x3c030621	0.007997067
239	0xbd9c8b71	-0.07643784
240	0xbda6b245	-0.08139471
241	0xbe34182c	-0.17587346
242	0xbc9b6d6c	-0.018973075
243	0x3c2749a5	0.010210429
244	0xbe1a72d7	-0.1508287
245	0xbe3a27f7	-0.18179308
246	0xbdb924fd	-0.09040258
247	0xbdb94956	-0.09047191
248	0xbe7ca66d	-0.24672861
249	0xbe4c9a35	-0.199807
250	0xbdbfbebf	-0.09362554
251	0xbe0f1c76	-0.139757
252	0x3d73c265	0.05951156
253	0x3ce92eeb	0.028464755
254	0xbdac0470	-0.08399284
255	0x3dd9d9a0	0.10637212

net.2.bias f4 [128]
0	0xbe8c01a9	-0.27345017
1	0xbea91203	-0.33021554
2	0xbe9040f7	-0.28174564
3	0xbe9582dc	-0.292014
4	0xbe8bc4a9	-0.27298477
5	0xbeebcb3f	-0.46053502
6	0xbd4addc1	-0.049527887
7	0xbec247da	-0.37945443
8	0xbe572730	-0.21011043
9	0xbe9b0ef7	-0.30284855
10	0xbe90db30	-0.28292227
11	0xbe1217c1	-0.14266874
12	0xbe910cd3	-0.28330097
13	0xbe6ca85b	-0.23111098
14	0xbe5f4d19	-0.21806754
15	0xbe23e29a	-0.1600441
16	0xbecc04ee	-0.3984751
17	0xbede86d6	-0.43462247
18	0xbe860244	-0.26173604
19	0xbedd7f2e	-0.43261093
20	0xbef0ef8a	-0.47057754
21	0x3edc0f99	0.4298065
22	0xbea066b0	-0.31328344
23	0xbe9e7487	-0.30948278
24	0xbef58148	-0.47950196
25	0xbedf1897	-0.43573448
26	0xbe6f8019	-0.23388709
27	0xbf1714b1	-0.5901595
28	0xbdcbae37	-0.09945338
29	0xbf99c909	-1.2014476
30	0xbe958737	-0.29204723
31	0xbe8844fa	-0.26615125
32	0xbed1030a	-0.4082263
33	0x3e04e4d8	0.12977922
34	0xbf46da22	-0.77676594
35	0xbd84a3ae	-0.06476532
36	0xbeec1e97	-0.46117088
37	0xbf3b09b7	-0.730617
38	0xbef26e91	-0.4734998
39	0xbefdd7cb	-0.495787
40	0x3dc854fa	0.09781833
41	0xbf19286b	-0.598273
42	0xbefa4727	-0.4888241
43	0x3f26421a	0.6494461
44	0xbea603bd	-0.32424727
45	0xbf1f0103	-0.6211092
46	0xbea4efd5	-0.32214227
47	0xbf0c260b	-0.5474555
48	0xbe493bca	-0.19651714
49	0xbefa4cdb	-0.4888676
50	0xbec96543	-0.3933507
51	0xbea4d5c4	-0.3219434
52	0xbe2b8f10	-0.16753793
53	0xbf04c2c1	-0.5185967
54	0xbee0f0e8	-0.43933797
55	0xbf017ede	-0.5058421
56	0xbe936b1e	-0.2879266
57	0xbea60408	-0.3242495
58	0xbf15028f	-0.5820703
59	0xbf1d5d2b	-0.6147029
60	0xbea0035f	-0.31252572
61	0xbd59d0ab	-0.053177517
62	0xbd0061b5	-0.03134318
63	0xbf93bee6	-1.1542633
64	0xbeef3a3e	-0.46724123
65	0xbf2ee5a3	-0.6831915
66	0xbe28fcb0	-0.16502643
67	0xbf2660aa	-0.6499125
68	0xbef5616e	-0.47925895
69	0xbde2e88d	-0.11079512
70	0xbedde30d	-0.43337288
71	0xbda2df4b	-0.07952746
72	0xbedddf82	-0.43334585
73	0xbee5d55f	-0.44889352
74	0xbe691515	-0.22761948
75	0xbe873028	-0.26403928
76	0xbea6d735	-0.32586065
77	0xbec8277f	-0.39092633
78	0xc052314d	-3.284259
79	0xbe4e356e	-0.2013757
80	0xbe3f64a3	-0.18690734
81	0xbf0432cf	-0.5164003
82	0xbebf75c5	-0.3739454
83	0xbe7e72e3	-0.24848513
84	0xbe80bf07	-0.25145742
85	0xbecba553	-0.3977457
86	0xbe97b785	-0.29632202
87	0xbed21611	-0.4103246
88	0xbe5482e7	-0.2075306
89	0xbea53353	-0.3226572
90	0xbf340558	-0.70320654
91	0xbe5039cf	-0.20334552
92	0xbe94c267	-0.29054567
93	0xbdd9021d	-0.10596106
94	0xbf1b636a	-0.6069857
95	0xbed145b1	-0.40873483
96	0xbeb20d03	-0.34775552
97	0xbdfc0dfa	-0.12307353
98	0xbed0c9b7	-0.40778896
99	0xbe8af19e	-0.27137464
100	0xbe77664c	-0.24160117
101	0xbee6a9ce	-0.45051426
102	0xbeeaa28d	-0.4582714
103	0xbed20445	-0.41018882
104	0xbe8097a6	-0.251157
105	0xbe149efa	-0.1451377
106	0xbfc669b0	-1.5501003
107	0xbed8827b	-0.4228705
108	0xbe3d4891	-0.18484713
109	0xbe8cb8ad	-0.27484646
110	0xbec87c45	-0.3915731
111	0xbe6c6249	-0.23084368
112	0xbeb96c90	-0.3621564
113	0xbe3e0fb0	-0.18560672
114	0xbf3e09e7	-0.7423386
115	0xbf36e9d3	-0.7145054
116	0xbf07ed9e	-0.5309695
117	0xbf1f416d	-0.62209207
118	0xbe4b6900	-0.19864273
119	0xbee94f57	-0.45568344
120	0xbf0ad13e	-0.5422553
121	0xbe578dc0	-0.21050167
122	0xbf8c59b5	-1.0964876
123	0xbef16848	-0.47149873
124	0xbf1530e8	-0.5827775
125	0xbec2c7d0	-0.3804307
126	0xbf1aab91	-0.6041804
127	0x40addf69	5.4335217

net.4.weight f4 [7, 128]
0	0xbbac2005	-0.0052528405
1	0xbcc22b32	-0.023702238
2	0xbca343cf	-0.019929795
3	0x3e17e60a	0.14833847
4	0x3cda16a1	0.026622118
5	0xbc875e2f	-0.016524402
6	0xbe5a1af1	-0.2129934
7	0x3cee67fc	0.029102318
8	0x3dd02936	0.1016411
9	0x3d6a7174	0.057237104
10	0xbc24d80e	-0.010061277
11	0xbcaab328	-0.020837381
12	0x3c236cac	0.00997464
13	0x3d25166d	0.04030459
14	0xbd9cbc70	-0.07653129
15	0x3bd43d92	0.0064770663
16	0xbd0c0e09	-0.034193072
17	0x3bf9b6ca	0.007620667
18	0x3b022ff7	0.0019865015
19	0x3cbb515e	0.022865947
20	0x3c89490c	0.016758464
21	0xbd438706	-0.04773619
22	0x3cefbbd9	0.029264377
23	0x3cbe512f	0.02323207
24	0x3b08aa87	0.0020853595
25	0xbc923f6b	-0.017852506
26	0x3cbd5f43	0.023116713
27	0x3d4dd964	0.050256148
28	0x3bf7f14e	0.0075666076
29	0xbd86bd95	-0.06579129
30	0x39c6c612	0.00037913077
31	0x3dbe63e3	0.09296396
32	0x3d4f517b	0.050614815
33	0xbd5fd901	-0.05465031
34	0x3ce59c7b	0.028028717
35	0xbd5109bc	-0.051034674
36	0x3ce99875	0.02851508
37	0xbe34f903	-0.17673115
38	0xbd2f93c1	-0.04286552
39	0x3dcc7fbd	0.09985302
40	0xbcc74cc7	-0.024328602
41	0xbd59f862	-0.053215392
42	0x3d02d536	0.031941615
43	0xbdf2636b	-0.11835369
44	0x3d8b44fa	0.068002656
45	0x3bcf9091	0.0063343723
46	0x3db3a791	0.08772195
47	0x3bf97e51	0.007613935
48	0xbd85e6f3	-0.06538191
49	0x3d641b52	0.055690117
50	0x3d891643	0.06693699
51	0xbe1148f4	-0.14187986
52	0xbd9f9edc	-0.07793972
53	0x3c400eac	0.011722248
54	0xbe2a9c6b	-0.16661231
55	0xbe245d24	-0.16051155
56	0xbdd4569d	-0.10368083
57	0x3d976e07	0.07394033
58	0xbcd3d641	-0.025859
59	0xbdea51cd	-0.114413835
60	0x3cc22821	0.023700776
61	0x3d6791e3	0.056535613
62	0xbc6aa40a	-0.0143213365
63	0x3d3d29c5	0.046182413
64	0x3d25420e	0.040346198
65	0xbd7eeddf	-0.06223857
66	0x3b341f31	0.0027484412
67	0xbdd089a5	-0.101825036
68	0x3bd530e7	0.0065060738
69	0x3b59750e	0.0033181342
70	0x3dfbd3ed	0.12296281
71	0xbc9b337a	-0.018945444
72	0xbdb5139b	-0.0884163
73	0x3dbab340	0.091162205
74	0x3d5f6969	0.054543886
75	0x3d8d3d9f	0.06896519
76	0xbe0cbedf	-0.13744687
77	0xbaea68ef	-0.0017884056
78	0x39b5856e	0.00034622423
79	0x3d2b3ea1	0.041807774
80	0x3de8f72f	0.113752715
81	0xbdb08ae6	-0.08620243
82	0x3d9e7731	0.07737578
83	0x3e1dec07	0.15422069
84	0x3bf40e04	0.00744796
85	0x3dabf207	0.083957724
86	0x3e4e9964	0.20175701
87	0xbd6ccfae	-0.057815246
88	0xbd99b3bc	-0.07504985
89	0xbc04d823	-0.008108172
90	0xbd7d71b3	-0.06187601
91	0xbdb775bd	-0.08958004
92	0xbd2f68a1	-0.04282439
93	0xbe1f6356	-0.15565237
94	0xbd00738c	-0.031360194
95	0xbe8240cc	-0.2544006
96	0xbc967a6d	-0.018368924
97	0xbd8dfce3	-0.06933
98	0xbbb48f6b	-0.005510261
99	0xbd9e712e	-0.07736431
100	0xbe01dcfa	-0.12681952
101	0xbcaa3efb	-0.020781985
102	0xbd889fb7	-0.06671088
103	0xbd97406c	-0.07385334
104	0x3cd83ea7	0.026397062
105	0x3d56b84a	0.052421845
106	0x3d33f742	0.043936975
107	0xbdbba0df	-0.09161543
108	0x3b84d4cf	0.004053689
109	0x3d206f79	0.03916881
110	0x3db8ea2d	0.090290405
111	0x3d0c90e4	0.034317866
112	0xbccb327a	-0.024804343
113	0xbd400b89	-0.046886
114	0xbdcf55a1	-0.10123754
115	0xbd704b1b	-0.058665376
116	0x3cad90c9	0.021187203
117	0xbddd273c	-0.10798499
118	0x3c39ca43	0.011339727
119	0xbe1b258e	-0.15151045
120	0xbe1aeb21	-0.15128757
121	0xbda101ba	-0.078616574
122	0xbc229119	-0.009922289
123	0xbbd25184	-0.006418409
124	0xbcaa6524	-0.02080018
125	0xbb220512	-0.002472226
126	0xbdcbc2c2	-0.099492565
127	0xbca8ad8d	-0.020590568
128	0x3cd43f00	0.025908947
129	0x3be90018	0.007110607
130	0xbd519e2b	-0.05117623
131	0xbbbc1c80	-0.005740702
132	0x3d899336	0.067175314
133	0xbcf4efb9	-0.029899465
134	0xbd995383	-0.07486632
135	0xbd964678	-0.073376596
136	0xbdf41e0c	-0.119197935
137	0x3d1bfc42	0.03808237
138	0x3b55a693	0.0032600507
139	0xbd4cb839	-0.049980376
140	0x3d90ff90	0.07079995
141	0xbe31a930	-0.17349696
142	0xbc9634a9	-0.018335657
143	0xbd65cc69	-0.056103144
144	0x3ac731be	0.001519732
145	0xbe0436f2	-0.12911585
146	0xbe042e84	-0.1290837
147	0x3bb050d5	0.0053807297
148	0xbcff2e99	-0.03115015
149	0x3cde2764	0.027118392
150	0x3d86c564	0.06580618
151	0x3cedbd9b	0.029021075
152	0x3d862723	0.065504335
153	0x3d0e5db9	0.03475735
154	0x3c181870	0.00928317
155	0x3cb70540	0.02234137
156	0xbbb12c21	-0.005406872
157	0xbd4ac0e1	-0.04950035
158	0xbacf9831	-0.0015838203
159	0x3b3bd26b	0.0028659354
160	0x3c3e89b3	0.01162951
161	0xbe3b760b	-0.18306749
162	0xbde0bba6	-0.10973291
163	0x3e07bd3e	0.13255784
164	0x3d17fdf5	0.037107427
165	0xbdae4942	-0.085100666
166	0x3d5a7515	0.053334314
167	0xbda7d341	-0.0819459
168	0xbdc0fb98	-0.09422988
169	0x3d4d67af	0.05014771
170	0x3d24a14a	0.04019288
171	0x3d9caf34	0.07650605
172	0x3cc1abd8	0.023641512
173	0x3b4d3979	0.0031314774
174	0xbdba10b8	-0.0908522
175	0xbe23b8fb	-0.15988533
176	0xbe1c6404	-0.15272528
177	0x3ca672c9	0.020318406
178	0xbe336535	-0.17519076
179	0x3b0af2ab	0.002120177
180	0xbcd41e51	-0.025893362
181	0xbcafb590	-0.02144888
182	0xbbf2d6e9	-0.007410873
183	0x3dd5e3b4	0.104438215
184	0x3d4d1a30	0.050073802
185	0x3c9c1cc6	0.019056689
186	0x3dc478ac	0.09593329
187	0xbdbef026	-0.093231484
188	0xbdb2aee9	-0.08724768
189	0x3d33caf1	0.043894712
190	0x3d892e20	0.06698251
191	0x3ddb038f	0.10694038
192	0xbd0b050a	-0.033940352
193	0xbe2f076b	-0.17092673
194	0x3cb1e2e4	0.021714635
195	0xbcf0c484	-0.029390581
196	0x3ced560e	0.028971698
197	0x3dcc2a17	0.099689655
198	0xbde20630	-0.110363364
199	0xbb89ed1a	-0.004209173
200	0x3ccea5c3	0.025225526
201	0xbd6ca26e	-0.057772093
202	0x3c4f3928	0.012647904
203	0xbcead073	-0.02866385
204	0x3cdf9641	0.027293326
205	0x3c2ff952	0.010740595
206	0xbc7e442a	-0.015519181
207	0x3cc759f0	0.024334878
208	0xbcb12e97	-0.021628661
209	0xbcaa62f4	-0.020799138
210	0xbcaded8e	-0.021231439
211	0x3d357b67	0.04430714
212	0xbc764c40	-0.015032828
213	0xbc851d53	-0.016249334
214	0xbdb5df2a	-0.08880456
215	0xbda1b115	-0.07895104
216	0x3d253fcd	0.04034405
217	0xbd108d8f	-0.03529125
218	0xbc5bebcf	-0.01342292
219	0xbddec5bd	-0.10877559
220	0xbc5b2593	-0.013375658
221	0xbdd52fe1	-0.10409523
222	0xbe0baecb	-0.13640897
223	0xbdb184a1	-0.08667875
224	0x3c75c127	0.014999664
225	0x3d68813e	0.05676388
226	0xbdb843f7	-0.08997338
227	0xbdd574fc	-0.104227036
228	0xbe151486	-0.1455861
229	0xbd4a6319	-0.049410913
230	0xbd0644aa	-0.032780327
231	0xbd435eb5	-0.04769774
232	0x3c9f2f38	0.019431695
233	0xbcef2f93	-0.02919749
234	0x3d3e3d1d	0.046445
235	0xbdb897bd	-0.09013317
236	0xbdf49e11	-0.11944211
237	0xbd7e1154	-0.062028244
238	0x3d899ce7	0.0671938
239	0x3cf78d85	0.030218849
240	0x3cc2bdfc	0.023772232
241	0xbcbb5b28	-0.022870615
242	0x3bba3b39	0.0056833294
243	0xbd7bb2c0	-0.061449766
244	0xbc0e8e8a	-0.008700976
245	0x3d9347c0	0.071914196
246	0x3c7f0c76	0.015566936
247	0xbd8ada8b	-0.06779965
248	0xbdc719b9	-0.09721703
249	0xbe02131b	-0.127026
250	0xbd2e5728	-0.042563587
251	0xbdbadf73	-0.09124651
252	0x3c596ca8	0.013270535
253	0x3c75c9a1	0.015001685
254	0xbc0fde19	-0.00878098
255	0xbd5c92a4	-0.053850785

net.4.bias f4 [7]
0	0x3fee5548	1.8619776
1	0x3ff82a90	1.9387989
2	0x3fede751	1.8586217
3	0x3fee8bbf	1.8636397
4	0x3feb20c3	1.8369373
5	0x3ff75aa8	1.9324541
6	0x3feb2937	1.8371953

net.0.weight f4 [128, 31]
0	0xbe05fa92	-0.13083866
1	0x3e13a7e4	0.14419514
2	0x3c8ec008	0.017425552
3	0xbca38ea0	-0.01996547
4	0xbe0ab77c	-0.13546556
5	0x3e0cd792	0.13754109
6	0xbc721c70	-0.014777288
7	0xbe28fa3f	-0.16501711
8	0x3d06cc08	0.032909423
9	0xbe32fa49	-0.17478289
10	0xbdd2887d	-0.10279939
11	0x3dc7d4c0	0.09757376
12	0xbe163e39	-0.14672174
13	0x3df799f0	0.12089908
14	0xbd9eb35f	-0.07749056
15	0x3e1d7f70	0.15380645
16	0x3e01f50e	0.12691137
17	0xbde24b33	-0.11049499
18	0x3e1f06e4	0.15529972
19	0xbdc1852f	-0.09449231
20	0xbe1b0ffc	-0.15142816
21	0x3e106264	0.14100033
22	0x3c690ea0	0.014224678
23	0xbda8f373	-0.08249559
24	0xbe19afae	-0.15008423
25	0x3e1a3526	0.15059337
26	0xbd39f054	-0.04539521
27	0xbe1af8dc	-0.15133995
28	0xbdbc7b73	-0.092032336
29	0xbdbfa9c7	-0.09358554
30	0x3e0f1114	0.13971359
31	0xbd084234	-0.03326626
32	0xbc1d05f0	-0.009583935
33	0x3dd07b80	0.10179806
34	0x3e294334	0.16529542
35	0x3d00a314	0.031405523
36	0xbdcd52c6	-0.100255534
37	0x3db3e770	0.087843776
38	0x3d855e46	0.06512122
39	0xbdcc9c20	-0.09990716
40	0x3e097942	0.13425162
41	0x3d7c1f88	0.061553508
42	0xbdfa765a	-0.12229605
43	0xbddb7140	-0.1071496
44	0x3d8ae0b4	0.0678114
45	0xbe29b0e0	-0.16571379
46	0x3e284718	0.1643337
47	0xbe00ee6e	-0.12590954
48	0xbce70900	-0.028202534
49	0x3d98a230	0.0745281
50	0xbdd70017	-0.10498064
51	0xbd51a080	-0.051178455
52	0x3e27fe3a	0.16405573
53	0xbe37be20	-0.1794362
54	0x3c274bb0	0.010210916
55	0x3d1954a8	0.03743425
56	0xbd31c668	-0.043402106
57	0x3e31b5ce	0.17354509
58	0x3d3ee764	0.04660739
59	0x3dba624c	0.0910078
60	0x3d34d8b4	0.044151977
61	0xbe36e0b3	-0.17859153
62	0xbcc88940	-0.024479508
63	0xbdf6cd74	-0.12050906
64	0xbe121728	-0.14266646
65	0xbdd8800e	-0.105712995
66	0x3c241f50	0.010017231
67	0x3e34cbf4	0.17655927
68	0xbc618300	-0.013764143
69	0xbdb5d71d	-0.0887892
70	0x3dba235c	0.090887755
71	0xbdeeca2e	-0.116596565
72	0x3e36773c	0.17818922
73	0x3c647130	0.013943002
74	0x3e134e6c	0.14385384
75	0xbe0efad4	-0.13962871
76	0xbe30ac68	-0.17253268
77	0x3e08e07e	0.13366887
78	0xbc23b420	-0.009991676
79	0x3d29362c	0.041311428
80	0xbd07c700	-0.033148766
81	0xbe2c91e6	-0.16852531
82	0xbd6a70f4	-0.057236627
83	0xbda3169f	-0.07963299
84	0x3dda83f8	0.10669702
85	0x3dff3a30	0.1246227
86	0xbe0b46fa	-0.13601294
87	0xbde1f6bd	-0.1103339
88	0xbd89de26	-0.067318246
89	0x3d9291a4	0.07156685
90	0x3d77c6b8	0.060492247
91	0xba14af00	-0.0005671829
92	0xbe1510ee	-0.1455724
93	0x3db27b70	0.0871495
94	0xbe0bdfe8	-0.13659632
95	0x3dc76cc0	0.09737539
96	0x3e1d388e	0.15353605
97	0x3e048f84	0.12945372
98	0xbe33062d	-0.17482825
99	0xbe35a6c3	-0.17739396
100	0xbce2e1c8	-0.027695552
101	0xbd624f82	-0.055251606
102	0x3e231c72	0.1592882
103	0x3dc7dee4	0.0975931
104	0xbdb6f4ad	-0.08933387
105	0xbd082390	-0.03323704
106	0xbe35d23a	-0.17755976
107	0x3df4a3a0	0.119452715
108	0x3d630814	0.055427626
109	0x3e3373f8	0.17524707
110	0x3c940fb0	0.018073887
111	0x3e1f2ee6	0.15545234
112	0xbdde61be	-0.108584866
113	0x3d92e188	0.07171923
114	0xbe1be2e4	-0.1522327
115	0x3d5704f8	0.052494973
116	0xbdf32183	-0.11871626
117	0xbe09dc06	-0.13462839
118	0x3dbe9020	0.093048334
119	0x3d5378c4	0.051628843
120	0x3d84d772	0.064864054
121	0xbe0738dd	-0.13205285
122	0x3e06b914	0.13156539
123	0xbdbc117b	-0.09183022
124	0x3d8e15ce	0.06937753
125	0x3e1d59dc	0.1536631
126	0x3e1e652c	0.15468282
127	0xbbeda3c0	-0.0072521865
128	0xbd178334	-0.03699036
129	0x3dd4ef6c	0.103972286
130	0x3cf25f40	0.029586434
131	0xbe2ab5e3	-0.16670947
132	0xbe28036b	-0.16407554
133	0x3e03f5f4	0.12886792
134	0x3dab4794	0.08363262
135	0xbb303840	-0.0026888996
136	0xbd0ffad4	-0.035151318
137	0x3e37cb9a	0.17948762
138	0xbdfeb6e2	-0.12437226
139	0x3e2de06c	0.16980141
140	0x3c925b80	0.017865896
141	0xbe0ebfb2	-0.13940313
142	0x3dd0ce4c	0.10195598
143	0xbd844215	-0.06457917
144	0x3e2e0414	0.16993743
145	0xbd11d164	-0.03560008
146	0xbe28a94a	-0.16470829
147	0x3af0b780	0.0018365234
148	0xbd17c68c	-0.037054583
149	0x3e0d520c	0.1380083
150	0xbdb51e89	-0.08843715
151	0x3e0a2732	0.13491514
152	0x3d995f50	0.074888825
153	0x3d95a0fc	0.07306096
154	0xbdac89fc	-0.08424756
155	0xbdea8ccb	-0.114526354
156	0x3d2fbfd4	0.04290755
157	0xbd7442b6	-0.059633933
158	0x3e297ee2	0.16552308
159	0xbe17c1b3	-0.14819984
160	0x3d3ad1dc	0.045610294
161	0x3da35124	0.07974461
162	0xbdc6889f	-0.09694027
163	0xbdc5f6e7	-0.096662335
164	0x3def631c	0.116888255
165	0x3d983c34	0.07433358
166	0x3dc0a50c	0.0940648
167	0xbd7c00b8	-0.061524123
168	0x3de69658	0.112591445
169	0x3e2b0bf0	0.16703773
170	0x3de5fab4	0.112294585
171	0x3d9f243c	0.07770583
172	0x3e177840	0.14791965
173	0xbd4ebb00	-0.050471306
174	0xbe28acc5	-0.16472156
175	0xbe22c495	-0.15895303
176	0x3e1dc23c	0.15406126
177	0x3d72bdd8	0.05926308
178	0x3e024d8e	0.12724897
179	0x3d96a914	0.07356468
180	0x3e33371c	0.17501491
181	0x3da4f080	0.08053684
182	0x3e2de3c6	0.1698142
183	0xbe0132ee	-0.12617084
184	0x3e1e6232	0.15467146
185	0xbe098e21	-0.13433124
186	0xbe026fdd	-0.12737985
187	0xbe057b5d	-0.1303534
188	0xbe2f9011	-0.171448
189	0xbe33b523	-0.17549567
190	0x3d6e5254	0.058183983
191	0xbb174c40	-0.002308622
192	0xbde9539b	-0.113928996
193	0xbe2116e9	-0.15731396
194	0x3dcd43f0	0.10022724
195	0xbd86633a	-0.06561895
196	0xbc2e7e00	-0.010650158
197	0xbd10f43c	-0.03538917
198	0xbdf797ca	-0.12089498
199	0x3e042fa8	0.12908804
200	0xbdf27b3b	-0.118399106
201	0x3dd22e48	0.10262734
202	0x3d0cf9d4	0.034417942
203	0x3b3e6c80	0.002905637
204	0xbdc7180c	-0.097213835
205	0x3d36a08c	0.044586703
206	0x3d84183e	0.06449936
207	0xbdfe11cb	-0.124057375
208	0xbd532644	-0.051550165
209	0x3d99079c	0.074721545
210	0x3de54810	0.111953855
211	0x3b059700	0.0020384192
212	0xbdb069bb	-0.086139165
213	0x3e22936c	0.1587655
214	0x3d6a8e98	0.057264894
215	0xbdcd9dc5	-0.10039858
216	0x3db2aa10	0.08723843
217	0x3d90bcfc	0.07067296
218	0x3de79bfc	0.113090485
219	0xbe2def52	-0.16985825
220	0xbe0d1b1a	-0.1377987
221	0x3d1f6c9c	0.038921937
222	0x3d33fd10	0.04394251
223	0xbe1aa69c	-0.15102619
224	0xbe2b18e0	-0.16708708
225	0x3d372260	0.044710517
226	0x3db883fc	0.09009549
227	0x3d887610	0.06663144
228	0xbd46e6cc	-0.04855995
229	0xbba87b20	-0.005141631
230	0xbd26179c	-0.04054986
231	0xbda8185d	-0.08207772
232	0xbb6edb40	-0.00364466
233	0xbce0d688	-0.027446046
234	0x3d8b27ea	0.067947224
235	0x3ddafa4c	0.106922716
236	0xbb081c80	-0.002076894
237	0x3cd8b2e8	0.026452497
238	0x3defedf8	0.11715311
239	0xbd376d04	-0.0447817
240	0x3ba69b00	0.0050843954
241	0xbe1c4c57	-0.15263496
242	0x3d4b777c	0.049674496
243	0x3c36b300	0.011151075
244	0x3b4de980	0.0031419694
245	0xbd92735d	-0.0715091
246	0xbe2e7e3c	-0.17040342
247	0xbdd8f87a	-0.10594268
248	0x3deb4034	0.11486855
249	0xbdff40db	-0.12463542
250	0x3cb16878	0.02165626
251	0x3e296218	0.16541326
252	0x3daf21d8	0.08551377
253	0xbe094634	-0.13405687
254	0xbe0d1410	-0.13777184
255	0xbd9f508c	-0.07779035

net.0.bias f4 [128]
0	0xbcd04880	-0.025425196
1	0x3e0d261e	0.13784072
2	0xbdf3211e	-0.11871551
3	0xbdaf4f76	-0.08560078
4	0x3e18f07a	0.14935485
5	0xbc229a40	-0.009924471
6	0x3be22900	0.0069018602
7	0x3d83e3fa	0.064399675
8	0xbbdcdf80	-0.0067405105
9	0x3d1d32e8	0.038378626
10	0x3da63cb8	0.0811705
11	0x3e129e04	0.1431809
12	0xbde3bb72	-0.11119737
13	0x3debd2e4	0.115148336
14	0x3d8e6bda	0.06954165
15	0x3b0954c0	0.0020955056
16	0x3d9d78d8	0.07689065
17	0xbcbfd018	-0.023414657
18	0xbd180f64	-0.037124053
19	0xbe05ea3c	-0.13077635
20	0xbd96d70d	-0.073652364
21	0xbc30c330	-0.010788724
22	0xbe03fc44	-0.128892
23	0xbe17d5b1	-0.1482761
24	0xbde25dfd	-0.11053083
25	0x3d81144c	0.063026994
26	0xbde90f47	-0.11379867
27	0xbd73de44	-0.05953814
28	0x3dad6ae4	0.084676534
29	0x3dbbe6cc	0.091748804
30	0xbdc7ff13	-0.097654484
31	0xbe23616e	-0.15955135
32	0x3d9c2e98	0.076260746
33	0x3df67b14	0.12035194
34	0x3e19d3aa	0.1502215
35	0x3dbbe9f0	0.091754794
36	0x3b94be80	0.004539311
37	0xbe118e8d	-0.14214535
38	0xbdcb155c	-0.09916183
39	0x3e013bc0	0.12620449
40	0x3c500410	0.012696281
41	0x3c709a80	0.014685273
42	0x3cd6d128	0.02622278
43	0xbc68be00	-0.014205456
44	0xbc00c240	-0.007858813
45	0x3e0d4e82	0.1379948
46	0xbdcc534e	-0.099768266
47	0x3d4033d0	0.046924412
48	0xbe105880	-0.1409626
49	0x3e098d0e	0.13432714
50	0xbdb2dc68	-0.087334454
51	0xbe3626a1	-0.17788173
52	0x3e0bad96	0.13640437
53	0x3de62dc8	0.11239201
54	0xbdd03671	-0.10166634
55	0xbda0a7dd	-0.078445174
56	0xbcfb8e60	-0.030707538
57	0x3e03362a	0.1281363
58	0xbe147fe6	-0.14501914
59	0x3e0ebd46	0.1393939
60	0xbd1f0dc0	-0.038831472
61	0xbe0c8cf3	-0.13725643
62	0xbe355cc8	-0.17711174
63	0x3b86f5c0	0.004118651
64	0xbd609610	-0.05483061
65	0x3d42fda4	0.04760517
66	0x3d08980c	0.03334813
67	0x3c115200	0.008869648
68	0xbca8ced8	-0.020606443
69	0x3e1d4cc4	0.15361315
70	0x3ca01b78	0.019544348
71	0x3e07ad08	0.132496
72	0xbe188129	-0.1489302
73	0x3c3f1630	0.011663005
74	0xbbdb5c80	-0.0066943765
75	0x3df1f3fc	0.118141145
76	0xbe03a233	-0.12854843
77	0xbdb0347d	-0.08603761
78	0x3dcaa9d8	0.098956764
79	0x3d6d976c	0.058005735
80	0x3e106d96	0.14104304
81	0xbdb232f9	-0.087011285
82	0xbe2f7367	-0.17133866
83	0x3a227d00	0.0006198436
84	0xbd452ce0	-0.0481385
85	0xbc0c3fd0	-0.008560136
86	0xbd073fc0	-0.03301978
87	0xbe1ad158	-0.15118921
88	0x3deccf68	0.11562997
89	0xbdfa4fba	-0.12222238
90	0xbcea4848	-0.02859892
91	0x3dd1279c	0.10212633
92	0x3dcac890	0.099015355
93	0xbd5cc3cc	-0.053897664
94	0xbdf36eaa	-0.11886342
95	0x3e1b194c	0.15146369
96	0x3c2bf6b0	0.010495827
97	0xbd72a17c	-0.059236035
98	0x3cfed538	0.03110753
99	0x3de82ed0	0.11337054
100	0xbde7ca45	-0.11317877
101	0x3d97760c	0.073955625
102	0xbd7923c0	-0.06082511
103	0x3c5efd60	0.013610214
104	0xbd48eea0	-0.049055696
105	0x3de9f080	0.11422825
106	0x3dc25a44	0.09489873
107	0x3e1ba89a	0.15201035
108	0xbd8ba864	-0.06819227
109	0x3d6a9f28	0.05728069
110	0xbe3600aa	-0.17773691
111	0xbda89ce1	-0.08233047
112	0x3c6b2580	0.014352202
113	0xbe1ade46	-0.15123853
114	0xbda7c0b5	-0.08191053
115	0x3e0746c0	0.13210583
116	0xbe154b38	-0.14579475
117	0xbe0575bf	-0.13033198
118	0xbe254aab	-0.16141765
119	0x3c032320	0.00800398
120	0x3d3f5060	0.04670751
121	0xbcaf9740	-0.021434426
122	0x3d91bf8c	0.07116613
123	0xbca60728	-0.020267084
124	0x3d585488	0.05281499
125	0xbe1d72ec	-0.1537587
126	0x3d10e38c	0.035373256
127	0xbe0bbd84	-0.13646513

net.2.weight f4 [128, 128]
0	0xbc6014e8	-0.013676859
1	0x3c106d90	0.008815184
2	0xbced991a	-0.029003669
3	0x3ba1ffc0	0.004943818
4	0xbca34708	-0.019931331
5	0xbd62ec28	-0.055400997
6	0xbd74d81c	-0.05977641
7	0x3ab4a780	0.0013782829
8	0xbb40b520	-0.0029404834
9	0x3d0747fe	0.03302764
10	0x3d01863c	0.031622157
11	0x3d2a21ae	0.041536026
12	0xbc6cf6c8	-0.014463134
13	0xbd86bda2	-0.06579138
14	0xbd49d9f0	-0.049280107
15	0xbdacb3f3	-0.0843276
16	0xbd46ee24	-0.048566952
17	0xbc9b6c8c	-0.018972658
18	0xbcf55704	-0.029948719
19	0x3cc12c78	0.023580775
20	0x3cf346e0	0.029696882
21	0x3d857693	0.06516757
22	0x3ca2bfd0	0.019866854
23	0x3c886fcc	0.016654871
24	0xbd825ccf	-0.06365358
25	0xbb2433e0	-0.0025055334
26	0xbda01f5c	-0.07818481
27	0xbd9d806a	-0.07690509
28	0xbd92a1c9	-0.07159764
29	0xbc291138	-0.010319047
30	0x3d7ada6a	0.061243452
31	0xbd127d49	-0.035764012
32	0x3d3cec22	0.04612363
33	0xba0b0780	-0.0005303547
34	0x3d6b1b1e	0.057398908
35	0x3d2923de	0.04129397
36	0xbda529eb	-0.08064636
37	0xbd637334	-0.055529788
38	0xbd9a318a	-0.0752898
39	0xbd77c9c6	-0.06049516
40	0x3cf8fb8c	0.030393384
41	0xbcbd4594	-0.023104466
42	0x3d8edec5	0.06976084
43	0xbcc2ae3c	-0.023764722
44	0x3cc44c38	0.023962125
45	0xbd38e916	-0.045144163
46	0x3d35755a	0.04430137
47	0x3d04b07e	0.03239488
48	0x3d089bc6	0.033351682
49	0x3cd31284	0.025765665
50	0x3cfad530	0.030619234
51	0x3c589618	0.013219379
52	0x3d889569	0.06669123
53	0x3d76fa1e	0.060297124
54	0x3d0851aa	0.033281006
55	0x3d8124b1	0.063058265
56	0x3da9e6d5	0.08295981
57	0xbd41beef	-0.04730123
58	0xbd8fb87a	-0.07017608
59	0x3d92ae65	0.07162169
60	0xbcd7fe50	-0.026366383
61	0xbd1a39f0	-0.03765291
62	0xbca9f6cc	-0.020747565
63	0xbce42918	-0.027851626
64	0x3db0076b	0.08595165
65	0x3d68930a	0.056780852
66	0x3da6cba7	0.08144312
67	0xbce10562	-0.027468387
68	0xbc1f76c8	-0.0097329095
69	0x3d68d066	0.05683937
70	0xbc1cfac8	-0.009581275
71	0xbd377d5b	-0.044797283
72	0x3d510cfe	0.05103778
73	0xbd27490c	-0.040841147
74	0xbd93f7a3	-0.07224967
75	0xbc675e88	-0.014121659
76	0x3d176c46	0.036968492
77	0xbd260293	-0.0405298
78	0xbc1e2700	-0.009652853
79	0x3d2fefe6	0.042953394
80	0xbd5c05ba	-0.0537164
81	0x3c609568	0.013707496
82	0x3bd58bc0	0.0065169036
83	0x3d6aaa7a	0.057291485
84	0xbd91c179	-0.0711698
85	0xb9b16700	-0.00033836812
86	0xbd9e6290	-0.07733643
87	0x3c0e7090	0.008693829
88	0x3d41b806	0.04729464
89	0xbd0c681b	-0.03427897
90	0xbd6ebf3d	-0.058287848
91	0xbcb90d4c	-0.022589348
92	0xbd2576f4	-0.040396646
93	0x3c176310	0.009239927
94	0xbd8831cb	-0.06650122
95	0x3d67e4ee	0.05661481
96	0x3d6949d6	0.05695518
97	0x3d4a41d6	0.049379192
98	0x3d6bdf4a	0.057585992
99	0xbd94cb4a	-0.07265337
100	0x3bad7500	0.0052934885
101	0xbd1fe5a9	-0.03903738
102	0x3d0add96	0.033902727
103	0xbd0ad5a6	-0.033895157
104	0x3c820248	0.015870228
105	0xbd52db02	-0.051478393
106	0x3d7cdc3a	0.061733462
107	0xbdb4c8e4	-0.08827379
108	0x3b9fcc50	0.004876651
109	0xbc59afe0	-0.013286561
110	0xba39f800	-0.0007094145
111	0xbd544aa8	-0.05182901
112	0x3d9157a1	0.07096792
113	0x3c8cd6ac	0.017192207
114	0x3d6825a2	0.056676514
115	0xbc5f9a78	-0.013647668
116	0xbcd582ea	-0.026063401
117	0xbcae39b0	-0.021267742
118	0xbb9be3a0	-0.0047573596
119	0xbd77dde2	-0.06051434
120	0xbc9bbdb4	-0.019011356
121	0x3d209e72	0.039213605
122	0xbc7c16b8	-0.015386276
123	0x3cbd5550	0.02311197
124	0x3d50959e	0.050923936
125	0xbce043ae	-0.027376022
126	0xbbcf7710	-0.006331332
127	0xbd5de5fa	-0.0541744
128	0xbcffbbd6	-0.031217497
129	0xbd75886f	-0.059944566
130	0x3c768620	0.015046626
131	0x3ce76b88	0.028249517
132	0xbc919e6c	-0.017775737
133	0x3d687002	0.056747444
134	0xbd225428	-0.03963104
135	0x3cd6a7fc	0.026203148
136	0xbd8c8ab8	-0.06862396
137	0xbd2f539d	-0.04280435
138	0xbd1f0d19	-0.03883085
139	0xbcd178e0	-0.025570333
140	0xbd321217	-0.043474283
141	0xbd670d4e	-0.056409173
142	0xbd54ba1b	-0.051935297
143	0x3ce97ab8	0.0285009
144	0xbd1ab255	-0.037767727
145	0xbd8c90dd	-0.06863568
146	0x3cc242bc	0.023713462
147	0xbb8bd0f0	-0.0042668507
148	0xbd9d67ed	-0.07685838
149	0xbda915e2	-0.08256127
150	0xbc5a8ec0	-0.013339698
151	0xbd2b26de	-0.041785114
152	0xbcb536e8	-0.022120908
153	0xbd3df84c	-0.046379372
154	0x3ca547a8	0.02017577
155	0xbd20cc0e	-0.0392571
156	0xbbbcbc00	-0.005759716
157	0x3d018636	0.031622134
158	0x3bbaee70	0.0057046935
159	0x3d95e4a3	0.073189996
160	0xbd81f4c3	-0.06345513
161	0xbd3eb90a	-0.046563186
162	0x3d45a8de	0.048256747
163	0xbd9fb9c1	-0.077991016
164	0xbdaf267f	-0.085522644
165	0xbd96cdc2	-0.07363464
166	0xbc9188c0	-0.017765403
167	0x3d9411c3	0.0722995
168	0xbd66176e	-0.056174688
169	0x3d8a5431	0.067543395
170	0x3c3e3258	0.011608683
171	0x3bfa10f0	0.0076314136
172	0x3d6d6fee	0.057968073
173	0x3d208bb2	0.039195724
174	0xbd73d250	-0.05952674
175	0xbd716280	-0.058931828
176	0xbc8879d8	-0.016659662
177	0x3d9138cb	0.070909105
178	0xbc66c428	-0.014084853
179	0x3c0c0108	0.008545168
180	0x3da57da3	0.08080604
181	0x3d8b7243	0.06808903
182	0xbc54d990	-0.012991324
183	0xbda45fee	-0.0802611
184	0xbd060a83	-0.03272487
185	0xbda8adeb	-0.08236297
186	0xbcf8ceb8	-0.030372009
187	0x3daefb5d	0.085440375
188	0xbd808430	-0.06275213
189	0x3d85b8c1	0.0652938
190	0x3d8ea665	0.06965331
191	0xbd8a6496	-0.067574665
192	0xbd44abdc	-0.04801546
193	0x3ceecaa8	0.029149368
194	0x3d4ebc7e	0.05047273
195	0x3da8056f	0.082041614
196	0x3cad1a24	0.021130629
197	0x3d5ff6c2	0.054678686
198	0x3ca260ec	0.019821607
199	0x3d23bb16	0.03997334
200	0xbd94096e	-0.07228361
201	0x3d50d22a	0.050981678
202	0x3be48980	0.006974399
203	0x3d6a905a	0.05726657
204	0x3d2ef4fe	0.04271411
205	0xbd028fd2	-0.03187544
206	0xbb4240c0	-0.0029640645
207	0xbd13aa04	-0.03605081
208	0xbd911e54	-0.07085863
209	0xbd2390be	-0.03993296
210	0x3dada59b	0.08478852
211	0x3d9d01f5	0.07666389
212	0x3d3d7a16	0.04625901
213	0xbda1d3d2	-0.0790173
214	0x3c229c40	0.009924948
215	0x3d93d22f	0.07217824
216	0xbd0f1dc7	-0.034940507
217	0xbd1096b0	-0.035299957
218	0x3d497162	0.049180396
219	0xbd5a08b6	-0.053230964
220	0xbd930b41	-0.07179881
221	0xbc497e10	-0.012298122
222	0x3cad2860	0.021137416
223	0x3a83bb00	0.0010050237
224	0xbd8b6f80	-0.06808376
225	0x3d43bafa	0.047785737
226	0x3da335b7	0.0796923
227	0xbd6dc390	-0.05804783
228	0xbd9fa5f3	-0.07795324
229	0xbd866259	-0.06561727
230	0x3ce445e4	0.027865358
231	0xbccb6f24	-0.02483327
232	0x3da7e057	0.08197086
233	0xbd088513	-0.033330034
234	0xbcbff348	-0.023431435
235	0x3d693da6	0.05694356
236	0x3c9a6ce0	0.018850744
237	0xbb181880	-0.0023207963
238	0x3da8e397	0.08246534
239	0xbc6af260	-0.014340013
240	0xbb3ba440	-0.0028631836
241	0xbda6c15f	-0.08142351
242	0x3da512b1	0.08060206
243	0x3d88b70d	0.06675539
244	0xbd853738	-0.06504673
245	0xbd1d398b	-0.038384955
246	0x3c106cb8	0.008814983
247	0x3c95b148	0.01827301
248	0x3d80fa1d	0.06297705
249	0xbda38d54	-0.079859406
250	0x3d0da384	0.03457977
251	0xbd90705f	-0.07052683
252	0xbbcb32f0	-0.0062011406
253	0x3da15cb1	0.078790076
254	0x3c987044	0.01860822
255	0x3bbcefe0	0.0057659

net.2.bias f4 [128]
0	0x3d48b4ee	0.049000673
1	0xbd84f701	-0.06492425
2	0xbb443ec0	-0.0029944628
3	0xbd85396f	-0.06505095
4	0x3d0c629a	0.03427372
5	0xbd5d19bb	-0.053979617
6	0xbd8d00a0	-0.06884885
7	0xbd769590	-0.060201228
8	0x3d64d356	0.05586561
9	0x3caf6a80	0.021413088
10	0x3d1390f2	0.036026902
11	0x3d84c467	0.06482773
12	0xbd8e82b4	-0.069585234
13	0x3d177d92	0.036984988
14	0x3b582a20	0.0032984093
15	0x3bd51f80	0.0065039992
16	0x3d2d9f12	0.04238803
17	0xbc6f98c8	-0.014623828
18	0x3d38e9ae	0.04514473
19	0xbd9cb5c2	-0.07651855
20	0xbda99b9c	-0.08281633
21	0x3c2180a8	0.009857334
22	0x3d1caa5e	0.038248412
23	0x3d32a686	0.04361584
24	0x3db2a9d9	0.08723802
25	0xbd1262ed	-0.035738874
26	0x3ce53484	0.027979143
27	0xbbd1bf60	-0.0064009875
28	0x3d2bb912	0.041924544
29	0xbd050616	-0.032476507
30	0xbd59323c	-0.053026423
31	0xbd6f9a66	-0.058496855
32	0x3d5bd8b6	0.05367347
33	0x3d9e84bd	0.077401616
34	0xbd7f82ab	-0.062380474
35	0xbcf1d968	-0.029522613
36	0xbce6caec	-0.028172933
37	0x3daae6c3	0.083447956
38	0xbd39c400	-0.045352936
39	0x3d8f5b53	0.069998406
40	0x3a450100	0.00075151026
41	0x3d3a87d6	0.0455397
42	0xbb4c2b00	-0.003115356
43	0xbd6caf6d	-0.057784487
44	0xbcd5f41e	-0.02611738
45	0xbb1afd60	-0.0023649558
46	0x3d82e909	0.06392104
47	0xbcecdd58	-0.028914139
48	0xbd8cbc66	-0.06871872
49	0xbd1ab973	-0.037774514
50	0xbd73c9ee	-0.059518747
51	0xbd8bdbf4	-0.06829062
52	0xbced8384	-0.028993376
53	0xbc8f8e3c	-0.017523877
54	0x3d99ecff	0.075159065
55	0x3c53df48	0.012931652
56	0x3d09d950	0.03365451
57	0x3c2b0480	0.010438085
58	0xbdb290c7	-0.0871902
59	0x3d38053e	0.044926874
60	0xbd9c9de2	-0.07647301
61	0x3d2a458e	0.04157024
62	0x3d21818a	0.03943018
63	0xbcd0062c	-0.025393568
64	0x3c9da41c	0.019243293
65	0xbd036115	-0.032075007
66	0xbc830ad4	-0.015996374
67	0x3d9e9583	0.07743361
68	0xbd9a7a02	-0.075428024
69	0x3da22e5f	0.07919001
70	0x3d77e38e	0.060519747
71	0x3cfaeb4c	0.030629776
72	0xbd624641	-0.05524278
73	0xbd7b1ca8	-0.061306626
74	0x3cbb9290	0.022897035
75	0xbd879b08	-0.06621367
76	0xbd554abe	-0.052073233
77	0xbd1ec58f	-0.038762625
78	0x3bdce410	0.0067410544
79	0x3c6ef4b0	0.014584705
80	0x3c61f530	0.013791367
81	0x3d986f5d	0.07443116
82	0xbdadb65d	-0.08482049
83	0x3d7cedee	0.061750345
84	0xbc0314d0	-0.008000568
85	0xbcafe46c	-0.021471225
86	0x3afc8940	0.0019266978
87	0xbcb7d080	-0.022438288
88	0x3a4f7e00	0.0007915199
89	0x3d85cd03	0.065332435
90	0xbd74399e	-0.05962526
91	0x3d228fde	0.039687984
92	0xbd537e7e	-0.051634304
93	0x3db4ecb1	0.08834208
94	0x3d45ed52	0.04832203
95	0xbd13254a	-0.035924233
96	0xbcef5dc4	-0.029219516
97	0x3d9822f7	0.07428544
98	0x3c092550	0.008370712
99	0x3da8bb73	0.08238878
100	0x3d4816f6	0.048850022
101	0x3cc3ccb4	0.023901321
102	0x3ca6bc7c	0.020353548
103	0xbd933d92	-0.07189478
104	0x3d83d1e3	0.06436517
105	0x3cacde70	0.02110216
106	0xbcb84a58	-0.022496387
107	0x3be740b0	0.007057272
108	0x3daa21a5	0.083071984
109	0x3c8c7eb4	0.01715026
110	0xbd3d4e1b	-0.046217065
111	0x3baaa070	0.005207114
112	0x3d40e16e	0.047089987
113	0x3d97a017	0.074035816
114	0x3b2597c0	0.0025267452
115	0xbd1e7281	-0.03868342
116	0xbd7aeb0f	-0.061259326
117	0xbd27a9bc	-0.040933356
118	0x3c8de4d8	0.017321035
119	0x3d7ad4c2	0.061238058
120	0x3cb7aa90	0.022420198
121	0xbd0cd623	-0.034383904
122	0xbd0b1f1d	-0.03396522
123	0x3d0d170c	0.034445807
124	0x3c2b81d0	0.010467961
125	0x3c08c818	0.008348487
126	0xbdb3576c	-0.08756909
127	0x3d97fdf9	0.07421488
